Forecast/forecast_utils/MSNet_util/checkpoints/long_term_forecast_demo_MSNet9_custom2_ftM/checkpoint.pth (torch, 366149 bytes, 28 tensors)

encoder.weight f4 [96, 96]
000000 5b 7e 9a bd a0 15 33 3b d8 cc 4a 3d d0 80 34 3d
       -0.07543632 0.0027326122 0.04951176 0.044068158
000010 e0 ae 6b 3c 60 ee 8b bd fa 7f be bd b2 75 c1 3d
       0.014384955 -0.06832576 -0.09301753 0.09446277
000020 0b 00 2c bd b4 90 a7 bd ee 69 81 3d d4 f6 c9 bd
       -0.04199223 -0.08181897 0.063190326 -0.09861532
000030 b0 b5 86 3d aa 1d 9d bd b4 1c 50 3d 9c c3 e8 bc
       0.06577623 -0.076716736 0.050808623 -0.028413586
000040 60 21 2f 3b 4f a3 2a bd 34 f1 6c 3d d8 10 49 3d
       0.0026722774 -0.04165965 0.057847217 0.04908833
000050 6c fa 7e 3d f5 2f 24 bd 54 9e ce 3d 80 75 03 3a
       0.06225054 -0.040084798 0.100887924 0.0005014762
000060 08 be d3 bc b5 bc bf bd 58 98 8d 3d 13 c5 b7 bd
       -0.02584745 -0.09362165 0.06913823 -0.08973136
000070 75 ea 86 bd 14 16 0e bd 90 48 1b 3d 7c e2 23 3d
       -0.06587688 -0.034689024 0.037910998 0.040010914
000080 70 17 8a 3d d0 55 90 3b c4 d9 4b 3d 34 85 89 3d
       0.067427516 0.004404761 0.049768224 0.067148596
000090 3b de c7 bd ea 06 af bd a8 d7 c9 bd 4a d7 93 bd
       -0.09759184 -0.08546241 -0.09855586 -0.072187975
0000a0 18 57 50 3d a6 08 ba 3d d0 32 11 3d 4b 94 a1 bd
       0.05086431 0.09083681 0.03544885 -0.07889613
0000b0 20 6d 4a 3d 7c f7 6a 3d b6 d9 b9 3d 9e 28 be bd
       0.049420476 0.057364926 0.09074728 -0.09285091
0000c0 38 09 70 bc 70 23 57 bd 68 5f b6 3d cc c3 68 3d
       -0.014650635 -0.05252403 0.08904916 0.05682735
0000d0 c0 4a 4a 3c d0 74 d0 3b ec 4b 32 3d ce 12 a4 bd
       0.012346923 0.0063615814 0.043529436 -0.08011399
0000e0 a8 88 28 bc 24 91 9c bd 28 2a 15 3d b8 93 01 3d
       -0.010286488 -0.07644871 0.036417156 0.031635016
0000f0 d9 d8 b5 bd 10 01 8f bb c0 10 42 3d 04 af 52 3d
       -0.08879251 -0.0043641403 0.047379255 0.05143644
000100 f2 2e c5 3d 7c 75 bc bd d8 4a 02 bd 9c fa 2a bd
       0.09628095 -0.09202096 -0.031809658 -0.041742906
000110 f0 c2 b0 bd 1a 82 c7 bd 30 11 9a bd d8 6d 42 3d
       -0.086309314 -0.09741612 -0.075228095 0.047468036
000120 b2 44 b2 bd 76 4e 3f bd a2 cc 8b bd fe d7 a0 bd
       -0.08704509 -0.046705686 -0.0682614 -0.07853697
000130 a8 b9 bc 3d 10 4c 32 bc d2 81 0b bd 88 8d be 3d
       0.092150986 -0.0108823925 -0.034059353 0.09304339
000140 a2 40 71 bd bf fa 30 bd 92 02 08 bd 18 0a 8c bd
       -0.05889953 -0.04320788 -0.033205576 -0.06837863
000150 7e 11 48 bd 6c 89 c9 bc e0 3e f9 3b 8b 0c 76 bd
       -0.048844807 -0.02460166 0.0076063722 -0.060070556
000160 c0 3d 82 bb c2 df cd 3d 40 2b d6 3a 80 ce 43 bc
       -0.0039746463 0.10052444 0.0016339794 -0.011951089
000170 6f c5 cd bd 18 49 98 bd 5c f7 54 3d 38 57 7a 3d
       -0.10047423 -0.074358165 0.051993713 0.061118335
000180 12 20 c5 bd 4c c1 b3 3c cc 65 b0 3c 78 25 24 bd
       -0.096252576 0.021942757 0.021532916 -0.040074795
000190 c2 43 a3 3d a8 f9 76 3c 92 71 9f bd 72 f4 af 3d
       0.07971908 0.015074171 -0.07785334 0.08591546
0001a0 50 3e 41 3d 78 63 46 bd 18 1a 01 3c 62 16 98 3d
       0.047178566 -0.048434705 0.007879756 0.07426144
0001b0 ae c9 9f 3d f4 64 46 3d b0 38 e4 3c 60 e3 b8 bb
       0.07802139 0.04843612 0.027859062 -0.0056423396
0001c0 0c 1a 88 3c e2 45 98 bd c0 33 bd 3a 53 46 cc bd
       0.016613983 -0.07435204 0.0014434978 -0.09974351
0001d0 68 d0 71 3d c6 5a 91 bd 5e 39 8c bd 8c 77 a7 3d
       0.059036642 -0.07097392 -0.068468794 0.08177099
0001e0 96 fb 03 bd e2 c1 88 bd 1f 7f a8 bd 14 c1 3b 3d
       -0.032222353 -0.06677605 -0.082273714 0.04583843
0001f0 41 3a ba bd 64 54 9f 3d c0 3e 04 3d b4 e0 c3 3d
       -0.09093142 0.07779768 0.032286406 0.09564343
000200 2e 1d 23 bd ae 84 b5 bd b8 ec 1f bc c6 81 a6 3d
       -0.03982275 -0.08863197 -0.009761028 0.08130221
000210 15 0d 47 bd 0f 81 c1 bd 1c 98 a1 3d e8 c0 93 3d
       -0.04859646 -0.09448444 0.07890341 0.07214528
000220 6c c2 a9 3d 8e 3f 86 3d c0 79 8c 3b 20 df a8 bd
       0.08289036 0.06555091 0.0042869747 -0.08245683
000230 77 74 90 bd 9a 19 41 bd 78 57 87 bd 81 33 a2 bd
       -0.07053464 -0.047143556 -0.0660848 -0.0791998
000240 28 4b 9e 3d 90 39 9c 3d 9e 84 86 bd b0 8e d0 bb
       0.07729179 0.07628167 -0.065682635 -0.006364666
000250 36 1c c9 3d e0 1e 4c 3d 50 b2 ab bc 68 16 ea bc
       0.09819834 0.049834132 -0.02095905 -0.028575137
000260 6c df 54 3d f4 45 23 bd 08 98 9e bd f4 dd e9 bc
       0.051970884 -0.039861634 -0.077438414 -0.028548218
000270 a2 e0 84 3d 94 c8 28 bd c0 48 92 bd 46 ee 1b bd
       0.06488158 -0.04120691 -0.07142782 -0.038069032
000280 7a a3 20 bd 72 7e 9a bd 00 ac 03 bb 98 72 53 3d
       -0.039218403 -0.07543649 -0.0020091534 0.051622957
000290 44 e8 c2 3d c0 0d e4 3c 9c b3 a5 3d ac 2c 24 3d
       0.095169574 0.027838588 0.080908984 0.040081665
0002a0 78 e5 d7 bc 3b be 9e bd 98 b6 d9 bc 8c 03 47 3d
       -0.026354536 -0.07751127 -0.026576325 0.048587367
0002b0 74 ea af 3c a8 a0 df bc 40 a1 8d bb 98 71 0e 3d
       0.0214741 -0.027298287 -0.004322201 0.0347763
0002c0 48 96 69 bc 0e 34 9a 3d 90 c0 84 bd 30 f1 46 3c
       -0.014257021 0.0752946 -0.06482041 0.0121424645
0002d0 28 ab 58 3d 78 ee a6 3d 68 01 67 3c a0 78 e3 3b
       0.052897602 0.08150953 0.014099456 0.00694187
0002e0 c0 60 b6 3d 64 45 94 bd 08 71 45 bd e6 54 74 bd
       0.08905172 -0.07239798 -0.048203498 -0.059651278
0002f0 da 10 c8 3d a0 15 98 3b d4 af a9 bd b0 bf 3f 3c
       0.09768839 0.00464125 -0.0828549 0.011703417
000300 b7 77 c5 bd 88 75 64 3d 3e b6 a3 3d f8 97 2e 3d
       -0.096419744 0.05577615 0.07993744 0.042625397
000310 b8 52 af bc b9 86 69 bd c6 e6 b6 3d 84 db 90 bc
       -0.021401748 -0.057013247 0.08930735 -0.017682798
000320 04 c0 29 3d 40 e7 d6 bb 90 ca ab 3d 80 b6 90 bc
       0.041442886 -0.006558329 0.08388245 -0.017665148
000330 a4 5f 85 3d 90 4f 9b bd cf 9d af bd 64 ec 8b 3c
       0.065123826 -0.07583535 -0.085750215 0.017080493
000340 02 cc af 3d 02 1c 88 bd 0c 59 8b 3d 28 8c 50 3c
       0.08583833 -0.06645967 0.06804094 0.012728728
000350 d9 77 b8 bd 79 13 7a bd e8 32 5f bc 84 aa 8a 3c
       -0.09007234 -0.061053727 -0.013622977 0.016927011
000360 94 1c 36 3d 40 0c bd 3d 36 c6 bc 3d a1 1e ac bd
       0.044460848 0.09230852 0.09217493 -0.084042795
000370 d4 53 6c 3d 18 92 de bc a0 14 c7 bb 7c 15 c4 3d
       0.057697132 -0.027169272 -0.0060754567 0.0957441
000380 24 5b 99 bc 5d 31 2c bd 94 5c 67 3d 20 dd 0d 3b
       -0.018720217 -0.042039264 0.056484774 0.0021646693
000390 38 f7 f2 3c 60 9c 22 3c 02 9a c2 3d 78 34 a7 3d
       0.029658899 0.009924978 0.09502031 0.081643045
0003a0 cc 17 09 3d 28 a1 32 3c a8 3c ff 3c 78 07 21 bd
       0.03346996 0.01090268 0.031156853 -0.039313763
0003b0 28 71 70 3d e2 5a a9 3d 3a cf a2 3d ba 2c 6a bd
       0.058701664 0.08269288 0.079496816 -0.05717156
0003c0 5d 42 40 bd 08 e6 b2 3d c6 a1 a5 3d ac 92 7e 3d
       -0.04693829 0.08735281 0.080874965 0.062151596
0003d0 a0 cd ab 3d 1c 9c bf 3d 53 ac 5e bd db f2 a5 bd
       0.08388829 0.093559474 -0.05436356 -0.08102962
0003e0 00 a6 c5 ba 20 97 7e 3d 2d d1 3b bd 2e 12 7f bd
       -0.0015079379 0.062155843 -0.045853782 -0.062273197
0003f0 de 38 ce bd 38 c4 6c 3c a0 09 52 3c c8 38 61 bd
       -0.1006944 0.014451079 0.012819678 -0.05498579

encoder.bias f4 [96]
000000 5c 13 84 3d 04 9b df bc 00 81 82 bc e4 fd a9 3d
       0.06449005 -0.027295597 -0.015930653 0.08300379
000010 50 8f 6a 3c a0 6c b4 bb 3c 6a 96 bd ae 85 8c 3d
       0.014316395 -0.005506113 -0.07344481 0.06861435
000020 80 24 8f bc 44 3f 36 bd cc fe 48 3d 50 27 3e 3d
       -0.01747346 -0.04449393 0.04907112 0.04642421
000030 cf 25 3d bd 80 56 4b 3d b4 d0 41 3d b8 0b b1 bd
       -0.046178635 0.04964304 0.047318175 -0.08644813
000040 48 1f ae 3d 60 53 3f bc b0 1c 4f bd c8 3f d5 bc
       0.0850206 -0.011677593 -0.050564468 -0.02603139
000050 90 2e 11 3d 0e 01 c1 3d 6c cd 9f bc 18 f7 a9 bd
       0.035444796 0.09424029 -0.019507132 -0.082990825
000060 44 05 0a bd 02 d5 ab 3d 23 41 41 bd 5c 8d 53 3d
       -0.033696428 0.083902374 -0.04718126 0.051648483
000070 10 19 1a 3d dd e5 c0 bd 08 b3 81 3c f8 29 9d 3c
       0.037621558 -0.09418843 0.015832439 0.019185051
000080 8c 9c 85 bc dd c9 8a bd 0b a3 9c bd 8e fb aa 3d
       -0.016309999 -0.067767836 -0.076482855 0.083487615
000090 40 15 5f 3d 84 9e 10 3d e0 60 50 bc 18 06 33 bc
       0.054463625 0.035307422 -0.012718409 -0.010926746
0000a0 5e d1 cd 3d 5a a1 a2 3d 84 06 9e 3d aa 0f 8b 3d
       0.10049699 0.079409316 0.077160865 0.06790097
0000b0 bc ee 55 3d e0 aa 1f 3b 9b 80 99 bd a7 a5 87 bd
       0.052229628 0.0024363324 -0.07495233 -0.066233926
0000c0 c0 1b b1 3a f8 b3 b9 3d 70 50 98 3d a8 0c 1b bd
       0.0013512298 0.090675294 0.07437217 -0.037853867
0000d0 78 e4 4a 3d d4 61 58 3d 33 ce ad bd 33 74 ad bd
       0.04953429 0.05282767 -0.08486595 -0.08469429
0000e0 f6 bc 9d 3d 65 68 9e bd 40 9d 67 3d 0e e5 be 3d
       0.07702057 -0.077347554 0.05654645 0.093210325
0000f0 56 97 8f 3d 8c 22 ef bc 47 f6 56 bd e8 99 d2 bc
       0.07011287 -0.029191278 -0.052480962 -0.025708154
000100 80 89 38 3b f8 c6 b5 3c ec 8a cb bc 81 d9 b7 bd
       0.0028158128 0.022189602 -0.024846517 -0.089770325
000110 ba da 9d 3d d8 b8 8f bc 6c c8 a5 3d 59 73 30 bd
       0.077077344 -0.017544195 0.08094868 -0.043078754
000120 a2 0d 98 bd 20 8b 7f 3b 2c 51 c5 3d 70 fa f6 3c
       -0.07424475 0.0038992837 0.09634623 0.030148715
000130 40 dd ae bd 11 1a c5 bd 80 07 3e 3d 40 76 c0 ba
       -0.08538294 -0.096241124 0.04639387 -0.0014683679
000140 26 ab b1 3d 38 eb ef bc e8 94 91 3c 17 97 3f bd
       0.08675222 -0.029286966 0.0177712 -0.04677495
000150 33 6d cd bd 68 44 3d 3d 84 ac 92 3c d8 07 8b 3d
       -0.10030594 0.046207815 0.017904527 0.067886055
000160 a8 f7 c1 bc 40 e3 97 3a 5a ec b0 bd 2a 94 94 bd
       -0.023677662 0.0011588112 -0.086388305 -0.072548226
000170 3c ca a5 3c cc 8c 1e bd 88 11 84 bd 19 ee 97 bd
       0.020238034 -0.038708493 -0.06448656 -0.074184604

conv_layers.0.downConv.weight f4 [31, 31, 12]
000000 79 3e 79 bc 6f 13 1c 3d 37 93 02 bc 1f d4 03 bd
       -0.015212649 0.03810447 -0.007969669 -0.032184716
000010 24 f7 3a 3d 01 0d 43 b9 57 04 16 3b 1a e2 8a 3c
       0.045645848 -0.00018601494 0.002289077 0.016953517
000020 4a 2e a1 bc bf 0a dc ba c8 75 90 3c a4 83 d8 3c
       -0.019675393 -0.001678787 0.017634287 0.026429959
000030 29 ba 14 bd a6 c9 92 bc 2e 25 28 bd 43 0d 03 bd
       -0.03631035 -0.01791842 -0.041051082 -0.03199507
000040 e8 40 88 bc 15 3e 2b 3d 5c d5 40 3d 8c 80 dd 3a
       -0.016632512 0.041807253 0.047078475 0.0016899272
000050 67 56 b8 bb 1b f0 07 3c 90 ad a2 3c 6b 51 7e 3c
       -0.0056255343 0.008296992 0.019858152 0.015522341
000060 9d d0 37 bc 92 8f 23 3d fe ff db bc c9 48 a6 bc
       -0.011219171 0.03993184 -0.026855465 -0.020298379
000070 eb 27 2b 3c 72 62 bd bc de e8 34 3c cf c5 27 bd
       0.010446529 -0.023118231 0.011041848 -0.04096013
000080 06 1f 18 3d 25 36 e9 3c cc d0 9a 3c da 2f 85 3c
       0.03713896 0.028468201 0.01889839 0.016258169
000090 7c 31 82 bc e9 06 2a 3d 43 2f b9 3c 26 d5 2d 3c
       -0.015892737 0.041510496 0.022605544 0.010609901
0000a0 4d e2 90 bb 5b ca 2d bd 88 c2 78 3c 4e 2a 00 3d
       -0.0044215084 -0.04242931 0.015183099 0.031290345
0000b0 0a 88 10 3d 1f 8b f4 3b e2 50 08 bd e5 95 b2 bc
       0.035285987 0.0074628736 -0.03328026 -0.02179999
0000c0 47 26 50 bd 17 7a 38 3d 7f a2 39 bc 4e ae 0b 3c
       -0.050817754 0.04503831 -0.011330246 0.008525444
0000d0 ca 98 39 bd de f5 93 bb b8 15 95 3c d2 fc be bc
       -0.045311727 -0.0045153936 0.018198833 -0.023313913
0000e0 cf ea f2 3c bc 4b c0 3c 32 61 66 3c e7 7b 14 3d
       0.029652981 0.023473613 0.014061259 0.036250975
0000f0 94 c4 48 bd 43 d5 4a 3c 1c 51 cf bb e7 32 c9 bc
       -0.049015597 0.012379947 -0.0063268077 -0.024560405
000100 99 e4 c2 3c dc f1 b6 3c 8c 50 9d bc 1a 78 1b 3d
       0.023790644 0.022332124 -0.019203447 0.037956335
000110 3a 12 e6 bc 86 20 04 3d bc 35 52 3d fb df 29 bc
       -0.028084863 0.03225758 0.051320776 -0.0103683425
000120 d5 11 27 bd 2a 52 21 3d d3 87 c2 bc 6a 03 38 bd
       -0.04078849 0.039385 -0.023746407 -0.04492513
000130 c3 d6 22 bc 98 b5 99 3c 7c 22 1c bc 94 7e b6 bc
       -0.0099388985 0.018763348 -0.009529706 -0.022277154
000140 30 20 33 bd b1 69 13 bc 61 a6 2b 3d d3 c7 f2 3c
       -0.04373187 -0.008997367 0.04190672 0.0296363
000150 bb c3 c6 3a ed fa dc 3c bf 5a 27 bd e0 35 0c 3d
       0.0015164533 0.02697512 -0.040858027 0.034231067
000160 91 95 f9 bb 3f c8 38 bc 88 b3 de bc 82 e1 bc 3c
       -0.0076167067 -0.011278211 -0.027185217 0.02305675
000170 74 ce 09 3d 53 0d a3 bb 14 53 25 ba ed 64 eb bc
       0.033644155 -0.0049759536 -0.000630663 -0.028734649
000180 f0 94 1e bc 1e af 3c bb f6 2e d9 bb f9 f5 a7 bc
       -0.009679064 -0.0028790901 -0.0066279126 -0.020503031
000190 af ba 2a bc cc 95 28 3d 43 5c 20 bd 3c f4 a7 bc
       -0.010420485 0.041158482 -0.039150488 -0.020502202
0001a0 51 65 0e 3c 84 e0 67 3c 56 a0 0e 3d 85 b9 ed 3b
       0.008691148 0.01415265 0.034820877 0.0072547817
0001b0 0b 91 be 3c 7c 19 a1 bc 06 2b 30 bc 1d 1a 2e bd
       0.023262521 -0.019665472 -0.010752445 -0.042505372
0001c0 4e 15 84 3c 51 ca 91 bc 85 21 4d bc 9a 5a c6 3b
       0.01612344 -0.017796667 -0.012520199 0.006053281
0001d0 87 b4 f0 bc d0 42 1e 3b 79 23 36 bd f1 19 c0 bb
       -0.029382957 0.002414871 -0.044467423 -0.0058624675
0001e0 ee 63 2d 3d 2a 0a 1f bd c2 87 37 38 b8 b3 9b bb
       0.04233163 -0.038828053 4.3757034e-05 -0.0047516488
0001f0 00 fe 8e bc 3d 4a a2 3c d3 8e 42 3b c9 eb 83 3c
       -0.017455101 0.01981079 0.002968718 0.016103642
000200 75 1e 23 bd 07 77 48 3c b3 9f 51 bc 42 e8 06 bd
       -0.039823968 0.01223541 -0.012794423 -0.032936342
000210 01 86 6b 3c ce 0a 0c bd bd 6d 61 3c fa b0 a5 bb
       0.014375211 -0.03418999 0.013759074 -0.0050564976
000220 ff a8 13 3d 78 16 1a 3d f8 80 d3 3c 02 a0 78 3c
       0.03604984 0.037619084 0.025818333 0.015174868
000230 53 ac 33 3d fc 90 0b 3d 82 8a f2 3c e7 16 2e bd
       0.043865513 0.034073815 0.029607061 -0.04250231
000240 da 37 2d 3d f0 89 0c bc 86 bd ff 3c 7d 54 35 3d
       0.042289592 -0.008577809 0.031218302 0.044270027
000250 6f 63 16 3d 58 41 f3 3c 14 9a ad bc 53 dd 2b 3d
       0.03671592 0.029694244 -0.021191634 0.041959118
000260 29 95 3d bd 06 c1 de 3c d1 c7 19 3d b4 79 6e 3c
       -0.04628483 0.02719165 0.037544075 0.0145553835
000270 41 99 ba 3c 36 60 02 bc 60 10 c1 bc 85 bb 69 bc
       0.022778155 -0.007957509 -0.023567379 -0.0142659
000280 17 92 68 bc 43 f7 3a bd 6a d5 08 3d 49 c1 cd 3c
       -0.014194987 -0.045645963 0.033406653 0.02511658
000290 dd 59 0f 3d fa 18 32 bc 8e e0 bf 3c 15 87 b3 bc
       0.03499781 -0.010870213 0.023422506 -0.021914998
0002a0 09 0c 9b bc fd b9 5f bb 11 f8 2e 3d 52 69 41 bc
       -0.018926637 -0.0034137957 0.042717043 -0.0118048955
0002b0 36 9a 15 bc 5a 39 c6 3c 1b 44 04 bd 8d 64 ec 3c
       -0.009131005 0.02419727 -0.032291513 0.02885654
0002c0 82 de 03 3d 7e 80 fc ba af 1a b0 bc 2b f5 bd bc
       0.03219462 -0.0019264368 -0.021497099 -0.023188194
0002d0 6c cd 0d bd 31 db 2b bc 3b eb a1 bc 90 f3 58 3c
       -0.034619734 -0.010489271 -0.019765487 0.013241664
0002e0 7a eb 2d 3c 03 3c c9 bc e0 04 01 bb ae f7 1a 3d
       0.010615224 -0.024564749 -0.0019686744 0.037833862
0002f0 6d c7 6b 3c ca 8b c7 3c b7 c7 00 bd f2 95 9f bc
       0.0143908085 0.024358649 -0.031440463 -0.01948068
000300 a8 1b 27 3d 1e 85 2c 3d 39 7c 09 3d 3a 74 01 3d
       0.04079786 0.042119138 0.033565734 0.031604983
000310 81 fc 2e 3d 3d 29 33 3d ad 06 04 3d 71 e7 90 bc
       0.042721275 0.0437405 0.03223293 -0.017688485
000320 8f c4 3a 3d 6c c0 15 bd 5d ee de 3c 29 1a 32 3d
       0.04559761 -0.03656046 0.02721327 0.04348198
000330 2b 6c 1f 3c 07 20 15 bc 5d f0 26 bd 80 2b 93 bb
       0.009730379 -0.009101874 -0.040756572 -0.0044912696
000340 07 42 3f 3c 02 22 92 3c db 1d 0e bd 8a fd 11 bd
       0.011673457 0.017838482 -0.03469644 -0.035642184
000350 a9 e4 1b 3d 8e 4d 9b bc 91 f2 fd 3c b5 67 17 bd
       0.038059864 -0.01895788 0.030999454 -0.036964137
000360 b2 88 a9 bb d4 1f b3 bc 0a 81 48 3d 0b 2d 02 bd
       -0.005173766 -0.021865763 0.048951186 -0.031781238
000370 4c 33 04 bd 31 fb 28 bd 05 c4 59 bb 7b 74 35 bc
       -0.032275483 -0.04125518 -0.003322841 -0.011075134
000380 66 66 81 bc 59 2c 23 bd 3b a7 fb bc 17 a5 81 bc
       -0.015795898 -0.039837215 -0.03071939 -0.015825791
000390 28 c3 e0 bb 95 5b 0e 39 bd 52 1b bc d2 a3 08 bd
       -0.006859202 0.00013576292 -0.009480176 -0.033359356
0003a0 a5 73 34 3d a2 ae 21 3d 71 4b 9d b9 79 33 27 bd
       0.0440556 0.039473183 -0.00030001582 -0.040820573
0003b0 f2 c6 36 bd e4 8e 0a bd 4d 9a 93 3b 7d 60 0f bd
       -0.044623323 -0.033827677 0.004504478 -0.035004128
0003c0 58 7a 99 bc e0 7b 82 bc 51 2e 1f bd 53 7d 2e bd
       -0.018735096 -0.015928209 -0.03886253 -0.042599987
0003d0 7e 0a 37 3d 09 0c 44 bd 40 5c d3 bc 51 6f 30 bd
       0.04468774 -0.04786304 -0.025800824 -0.04307491
0003e0 28 84 44 3c 96 2f 27 3c 1a 16 c8 3c b4 38 c5 3c
       0.011994399 0.010204216 0.024424601 0.02407489
0003f0 bb e2 8e bc 82 86 47 bc 57 ba 29 3d 65 44 3b 3b
       -0.017442098 -0.012178065 0.041437473 0.0028574702

conv_layers.0.downConv.bias f4 [31]
000000 43 61 2b 3c 9d 73 6e bc af 88 1e bd b4 aa bb ba
       0.010460201 -0.014553932 -0.03870457 -0.0014317841
000010 d4 b3 0e bd 56 0b c1 b7 60 af 92 3c 95 94 0d bd
       -0.034839466 -2.3012672e-05 0.017905891 -0.034565527
000020 a3 2a 05 bd 8b 22 d7 3c be cb 10 bd 81 b9 2b bd
       -0.032511365 0.026261589 -0.035350554 -0.041924957
000030 d4 71 2d bd df c9 ab 3c 37 36 37 ba 65 cb 39 3c
       -0.042344883 0.020970283 -0.00069889746 0.011339997
000040 4b b3 a4 33 ef 2a df 3c 1e 07 0c bc de 78 8f bc
       7.669458e-08 0.027242152 -0.008546619 -0.017513689
000050 19 00 29 bd eb 0c 76 bc 53 16 18 3d a2 3e d2 3c
       -0.04125986 -0.015017728 0.037130665 0.025664631
000060 45 75 6c 36 2e 91 8b bc 45 13 4e bc aa 4f f3 bb
       3.5235e-06 -0.017037 -0.012577836 -0.007425268
000070 cd 59 1b 36 bf 42 2c 3d 53 e0 e3 bc
       2.314907e-06 0.04205584 -0.027816927

conv_layers.0.norm.weight f4 [31]
000000 10 b0 7d 3f 74 99 7d 3f d0 a6 7d 3f cb ba 7d 3f
       0.99096775 0.99062276 0.9908266 0.9911315
000010 40 ae 7d 3f 9c b8 7d 3f 90 b6 7d 3f 75 bd 7d 3f
       0.9909401 0.99109817 0.99106693 0.99117213
000020 ef 98 7d 3f f1 c1 7d 3f a6 c7 7d 3f 8a a1 7d 3f
       0.99061483 0.99124056 0.99132764 0.99074614
000030 d5 b2 7d 3f 1b b3 7d 3f 61 a8 7d 3f 3a b7 7d 3f
       0.99101 0.9910142 0.9908505 0.99107707
000040 20 b3 7d 3f a7 ae 7d 3f 40 c3 7d 3f 7a b7 7d 3f
       0.9910145 0.99094623 0.9912605 0.9910809
000050 f3 b4 7d 3f 44 b1 7d 3f 80 a7 7d 3f 7a af 7d 3f
       0.9910423 0.9909861 0.9908371 0.9909588
000060 e0 b7 7d 3f f7 a5 7d 3f d6 bc 7d 3f c5 ac 7d 3f
       0.99108696 0.9908137 0.99116266 0.9909175
000070 2e a6 7d 3f e0 af 7d 3f 1d 8f 7d 3f
       0.99081695 0.9909649 0.990465

conv_layers.0.norm.bias f4 [31]
000000 63 e2 0a 3b 36 6c 4c bb 71 d5 43 bb 33 91 cd ba
       0.0021192066 -0.0031192428 -0.002988186 -0.0015683532
000010 57 a8 4e bb 2b 36 7f ba d6 f6 87 bb 06 54 6a bb
       -0.0031533444 -0.00097355497 -0.004149298 -0.0035755648
000020 1b 4a ba bb c7 b0 34 bb 92 f3 6d bb 57 2b 54 bb
       -0.0056851036 -0.0027571188 -0.003630851 -0.0032374465
000030 f7 64 6d bb 39 57 b0 bb b2 af 9f bb 11 6f ac bb
       -0.003622351 -0.0053814915 -0.0048732394 -0.0052622636
000040 7d 2e be bb a2 f7 63 bb d3 63 11 bb 7c 42 60 bb
       -0.0058038817 -0.0034785052 -0.0022184744 -0.0034219315
000050 e6 f6 a0 bb 3a 37 2e bb 83 84 c5 39 96 0e 36 bb
       -0.004912245 -0.002658321 0.00037673497 -0.002777969
000060 64 be 8a ba c1 93 9a 3a 6c 88 8f bb 05 e4 19 bb
       -0.0010585305 0.0011793302 -0.0043802764 -0.0023481857
000070 13 bb 81 bb a7 2f 0d bb 70 68 db b8
       -0.0039590686 -0.0021543296 -0.00010462187

conv_layers.0.norm.running_mean f4 [31]
000000 19 37 3d bb 78 d7 d4 bb ab c6 c7 bc 15 bb 78 3c
       -0.0028871952 -0.0064954124 -0.024386724 0.015181323
000010 1b b5 54 bd ac e7 e4 3c 92 c5 08 3d d2 9e f2 bc
       -0.051930528 0.027942501 0.033391543 -0.029616747
000020 7a 10 4c bd 00 59 c3 3c 39 74 03 bd c0 10 22 bd
       -0.0498204 0.02384615 -0.03209326 -0.039566755
000030 7a 9e 96 bc 01 42 96 3c cb 17 9b 3b b7 33 7f 3c
       -0.018386114 0.01834202 0.004733061 0.015576295
000040 85 3e 8f bb 51 3f 04 3d bc 6c 17 3c 4c 4f c1 bc
       -0.0043714666 0.032286946 0.009242233 -0.023597382
000050 52 16 06 bd fa 2c 14 bc 75 b9 39 3d af 94 e3 3c
       -0.03273613 -0.009043926 0.04534288 0.027780859
000060 33 f7 ad bb ac b8 ba bc c5 43 09 bc 47 f5 5b bb
       -0.0053090095 -0.022793137 -0.008377974 -0.0033562945
000070 24 a5 59 3c 40 ff 43 3d a7 98 c3 bc
       0.0132840015 0.047850847 -0.023876501

conv_layers.0.norm.running_var f4 [31]
000000 b1 07 bd 3d a3 00 96 3d e4 c6 9f 3d 45 1b dd 3d
       0.09229983 0.0732434 0.07801607 0.10796217
000010 6a da b7 3d 2b f3 14 3e c9 93 de 3d f3 d3 f0 3d
       0.08977206 0.14545886 0.108680315 0.11759176
000020 09 95 00 3e 5e 11 b6 3d 43 bf a6 3d 39 c1 bf 3d
       0.12556852 0.08890031 0.08141949 0.09363026
000030 37 40 2e 3e 7c b2 08 3e c1 49 e9 3d 82 4f 25 3e
       0.17016684 0.13349336 0.113910206 0.16143611
000040 33 98 00 3e 22 12 ac 3d b0 bb c7 3d 4e df 0a 3e
       0.1255806 0.08401896 0.097525954 0.13561746
000050 9b 11 c5 3d 79 83 b2 3d cd d0 81 3d 3c 8c ae 3d
       0.096224986 0.08716483 0.06338654 0.08522841
000060 66 b4 aa 3d e0 73 c8 3d 7e 05 bd 3d 8e ad e1 3d
       0.083351895 0.097877264 0.09229563 0.11019431
000070 40 56 b6 3d 3b 09 d0 3d cc dd ff 3d
       0.0890317 0.101580106 0.12493476

conv_layers.1.downConv.weight f4 [31, 31, 4]
000000 70 78 4a 3c be 3e 72 3d 7d 0b 42 3d ee b5 a1 3d
       0.012357816 0.059141867 0.047374237 0.078960285
000010 5b 4c 3c bd ff 84 7e bd d4 c7 22 ba 6b d1 77 bd
       -0.045971256 -0.062138554 -0.0006209586 -0.06050245
000020 60 21 06 bd d2 73 44 3d 7b 97 41 bd 2b 92 0d bd
       -0.032746673 0.047962017 -0.047263604 -0.034563225
000030 46 c8 71 3d 9e e5 3b bd eb e9 bd 3c bd b3 1b 3b
       0.059028886 -0.045873277 0.02318283 0.0023758255
000040 00 53 01 3d 3c a7 96 bd 70 41 1f bd fe 2d 20 3d
       0.031573296 -0.07356116 -0.038880765 0.03910636
000050 0c 97 28 3d 5c 13 73 bd df b8 40 3d 43 07 84 3d
       0.041159675 -0.059344634 0.047051307 0.064466976
000060 e5 d2 14 3c 3f cc 09 bc df 47 4b bc f2 44 b1 3c
       0.009083484 -0.0084105125 -0.012407272 0.021639321
000070 92 15 3e bd db ed eb 3c 6d b1 a4 bd bf fe 19 3d
       -0.04640729 0.028799942 -0.08041654 0.03759646
000080 78 95 8a 3d 6d 7a 50 3d 54 88 7a bb b4 53 2c bc
       0.0676679 0.050898004 -0.003822823 -0.010518003
000090 76 0b ac 3c af 6c 10 bd b4 43 27 3d 9f c0 a8 3c
       0.021001559 -0.0352599 0.04083605 0.020599661
0000a0 a0 0a 49 bd a5 44 f9 bc f2 06 83 bc 4e 08 5f 3d
       -0.0490824 -0.03042824 -0.015994523 0.05445128
0000b0 df b9 b5 bc 1e 7e eb bb 8a 99 07 3d c0 af c1 bc
       -0.022183357 -0.007186665 0.03310541 -0.023643374
0000c0 d3 42 54 bb f8 9e 91 bd 81 81 55 3d 01 2f 02 bc
       -0.0032388463 -0.07110399 0.052125458 -0.007945777
0000d0 b8 75 91 bd a2 18 4a 3c 63 60 9e bd 6f 8c 64 3d
       -0.07102531 0.0123349745 -0.07733228 0.05579799
0000e0 5d 7d 7e bd 88 27 0b bd 98 ff 12 bd 60 a8 fb bc
       -0.062131274 -0.033973247 -0.035888284 -0.030719936
0000f0 63 9b b3 bc 58 28 a2 bd 15 52 5d bb 09 c6 13 bd
       -0.02192468 -0.07917851 -0.0033770849 -0.036077533
000100 de e1 91 bd 0e 4a 55 3c e6 43 cb 39 fb 61 2e 3d
       -0.07123159 0.013018144 0.00038769766 0.04257391
000110 1e 54 b2 3c 02 77 8a 3d d2 72 1a bc 8d d0 d8 bc
       0.021768626 0.0676098 -0.009426789 -0.026466632
000120 d8 ea 37 bc 21 46 46 3d c2 99 46 bd 0a 62 5a bd
       -0.011225425 0.048406724 -0.04848648 -0.053316154
000130 7f 91 8d 3d b8 c6 0d 3d 86 d0 05 bd 2b ff c2 3c
       0.06912517 0.03461334 -0.032669567 0.023803314
000140 9f 13 4d bd 74 68 81 bd c4 f2 4a bd 66 91 8c 3d
       -0.05006754 -0.06318751 -0.049547926 0.0686367
000150 be 90 49 bd 18 b7 9d bd 01 4e 6f 3b a4 69 0e bd
       -0.049210303 -0.07700938 0.0036515 -0.034768716
000160 86 bc 56 3d ed a7 76 3d 29 43 7a 3c 18 62 b1 3c
       0.052425884 0.06021874 0.015274801 0.02165322
000170 5a 8c b4 3b ba 7f a4 3d ca 1f 23 bd 88 ef f2 3c
       0.0055098953 0.080321744 -0.03982524 0.029655233
000180 db 2e bf bc 89 15 56 3d 7f 1c 84 3c 91 90 87 bd
       -0.023337772 0.05226663 0.01612687 -0.06619371
000190 3b 7c fc bc dc ed e5 bb 58 d3 18 bc 7f eb 75 3d
       -0.030820956 -0.0070168804 -0.009327732 0.06003904
0001a0 ea 16 45 bd c0 4d 21 3c b1 b4 87 bc e8 df 31 3d
       -0.048117556 0.009845197 -0.016565653 0.043426424
0001b0 b3 48 49 bd e6 85 7c 3d 64 50 19 bc f9 67 7d bc
       -0.049141597 0.061651133 -0.0093575455 -0.015466684
0001c0 fc 1d 9d bd 07 0b 37 bd 8a 14 d5 3c 1c e1 82 3d
       -0.07671735 -0.04468825 0.02601077 0.063905925
0001d0 88 1b 16 bd 08 fa 9f 3d 9b 1d 7a 3c 73 49 b5 bb
       -0.03664735 0.078113616 0.015265848 -0.0055324375
0001e0 99 71 81 bd f4 60 c9 bc ab d2 a3 bc 24 8b b4 bc
       -0.06320495 -0.024582364 -0.019997915 -0.022039004
0001f0 10 6a 03 3d ac e7 e2 3b a3 2d 2a 3d 67 c0 81 bd
       0.03208357 0.00692459 0.04154743 -0.06335526
000200 61 44 a0 3d c4 89 a3 bd a9 b6 28 3c db b5 33 3d
       0.07825542 -0.07985261 0.010297456 0.043874603
000210 ea 6b 3f bd 4e 17 44 bb 8b 10 7d 3d 9a eb 10 3b
       -0.046733774 -0.0029921117 0.061783355 0.0022113086
000220 79 43 3e bd f0 67 16 bd c5 2a 9a 3c ae 4e 85 3d
       -0.046451066 -0.036720216 0.018819222 0.065091476
000230 8d f6 af bc 77 bd 89 bc 9a c7 d2 3b 7f 73 49 3d
       -0.02147987 -0.016813977 0.0064324858 0.04918241
000240 f7 b0 2e bc fe a9 8f bd ae a3 7c bd 6b 8a 99 bd
       -0.010662309 -0.07014845 -0.061679535 -0.07497104
000250 42 a3 07 bd 55 b6 6b bc 48 0f a1 bd 82 50 92 bd
       -0.03311468 -0.014386733 -0.07864243 -0.07144262
000260 74 90 4c 3d da d8 99 bd 0d 53 21 bc 9c 80 43 bb
       0.04994245 -0.07512064 -0.009846461 -0.0029831296
000270 ab a8 0b bb fc 77 81 3d 2d 4c bc bc 9e 46 94 bd
       -0.002131025 0.06321713 -0.022985542 -0.07240032
000280 88 e8 86 3d 35 9b 13 3c 12 fd e3 bc f6 16 58 3d
       0.065873206 0.009009172 -0.027830634 0.052756272
000290 f8 dc 3a 3d c4 cc 32 3c 1c ee 8b 3d 15 1d 34 bd
       0.04562089 0.010913078 0.06832525 -0.043973047
0002a0 95 f8 9a bd 49 9c 63 3d 26 03 2f bd be d4 f2 bb
       -0.075669445 0.055568967 -0.042727612 -0.0074106148
0002b0 e1 a4 56 bc 4b 59 30 3c 10 27 df bc 4e 43 5c bd
       -0.013100834 0.010763477 -0.027240306 -0.053775124
0002c0 dd 35 eb bc c9 52 05 bd a5 ad ab 3c 99 3c 39 bd
       -0.028712207 -0.032549653 0.020956824 -0.045223806
0002d0 78 13 8b 3d dd 75 36 3d f6 2c 55 3d ad 35 92 3d
       0.06790823 0.044545997 0.05204483 0.07139144
0002e0 66 a6 e7 3c 1e a0 a7 3d 50 87 59 bd 8d a7 4c 3d
       0.028277587 0.08184837 -0.05310756 0.049964476
0002f0 50 d6 59 3d b7 16 9b bd 73 d6 9b bc 5f bc 0f bd
       0.0531829 -0.07572692 -0.019023156 -0.035091754
000300 fa 68 d5 bc e1 69 75 3d f3 b9 d6 3c 85 b5 74 bd
       -0.026051033 0.059915427 0.026211714 -0.059743423
000310 3f ed a7 3d 75 53 a2 3b 7f 96 09 3c 64 35 81 3d
       0.08199548 0.0049537965 0.0083976975 0.063090116
000320 a9 d2 9a bc bd 6f 38 bd 23 e6 69 3c 1b 57 8b bd
       -0.018899279 -0.045028437 0.01427606 -0.068037234
000330 b9 bc 9d bd c9 94 5b 3d da 87 09 bc 12 9f 49 bd
       -0.077020116 0.05360869 -0.008394206 -0.049223967
000340 3c 3d 1c 3d c3 a2 87 38 c2 50 9b bc ee 10 23 3d
       0.038144335 6.4676184e-05 -0.018959407 0.039811067
000350 f5 99 91 bc ea 2c 90 3d 94 aa 96 3d 27 aa 25 3d
       -0.017773608 0.07039817 0.07356754 0.040445473
000360 2c eb 8b 3c 42 da 2d bd 3b 07 3e 3d ab 03 6f bd
       0.017079912 -0.042444475 0.046393614 -0.058353107
000370 50 51 98 bd c8 df 77 3d f3 4a a6 3c b4 8e 63 3c
       -0.07437384 0.06051615 0.02029941 0.013889004
000380 33 2e be bc f9 2f 7d bd 22 ee 5e 3d 9e 6f 48 3c
       -0.023215389 -0.06181333 0.05442632 0.012233643
000390 f3 f9 1e 3c 21 c9 8a 39 96 56 3c bd 71 4c 92 bb
       0.009703147 0.00026471264 -0.045981012 -0.004464679
0003a0 b5 02 91 bd 01 c9 7a bd a7 be 61 bc 5b ee 36 bd
       -0.070805945 -0.06122685 -0.013778365 -0.044660907
0003b0 85 07 9d 3d 24 40 2f 3d 8b d0 7f bc d8 36 81 3d
       0.0766745 0.04278578 -0.015613685 0.06309289
0003c0 a1 97 97 3d 01 87 9d 3d 07 9e 80 3b 03 13 67 bd
       0.07401968 0.076917656 0.0039250883 -0.056414615
0003d0 d9 41 8b 3d 25 96 65 bd fc 67 20 3d 85 cc 10 3d
       0.06799669 -0.056051392 0.039161667 0.035351295
0003e0 e2 66 1c bd 52 7f 8a bd 98 e3 75 3d 0f 4b 9f 3d
       -0.038184054 -0.06762566 0.060031503 0.07777988
0003f0 18 74 2f bc bc ae 89 bc 51 c8 43 3d 8a 71 73 bd
       -0.010708831 -0.016806953 0.04779846 -0.05943445

conv_layers.1.downConv.bias f4 [31]
000000 b4 d5 1b bd 46 a7 0a b7 c3 3b 20 bd 93 db 0b bd
       -0.0380456 -8.264387e-06 -0.039119493 -0.03414495
000010 5e 10 93 bd d7 87 d0 3c 9e f9 06 bc 77 bb cf bc
       -0.07180856 0.025455398 -0.008238224 -0.025357945
000020 8d 5b 5c 3d 14 fc 6f bd e8 4f 50 3d be 10 a4 bd
       0.053798247 -0.05859001 0.050857455 -0.08011006
000030 cc 44 72 3d 17 d9 f1 3b a9 e3 df bc 72 20 97 bc
       0.05914764 0.0073806155 -0.027330237 -0.018448088
000040 a9 21 8d 3d c2 ec 9d 3d 8b 3b a3 3d e6 ac 9d 3d
       0.06891186 0.077111736 0.07970341 0.076989934
000050 86 a4 44 bd ce 8a 92 3d ad 5d 91 3d af f0 9d 3d
       -0.048008464 0.07155381 0.07097945 0.077119224
000060 5a b3 8b 3d e1 55 3a 3d 8c f1 3e bd a4 95 88 bd
       0.06821318 0.045492057 -0.046617076 -0.06669167
000070 cb 7a 81 3c 28 6d 28 3d 1d eb 20 3c
       0.015805623 0.041119725 0.00982168

conv_layers.1.norm.weight f4 [31]
000000 82 8c 7d 3f 78 8b 7d 3f 41 8e 7d 3f 82 8f 7d 3f
       0.9904252 0.9904094 0.9904519 0.990471
000010 1f 8e 7d 3f c0 8f 7d 3f c8 92 7d 3f b2 90 7d 3f
       0.99044985 0.9904747 0.99052095 0.9904891
000020 8c 8e 7d 3f 18 93 7d 3f 62 94 7d 3f c2 8c 7d 3f
       0.99045634 0.9905257 0.9905454 0.99042904
000030 48 95 7d 3f 44 91 7d 3f cb 8d 7d 3f 1a 8d 7d 3f
       0.9905591 0.9904978 0.99044484 0.9904343
000040 ff 8f 7d 3f 03 94 7d 3f 2f 8f 7d 3f 58 90 7d 3f
       0.99047846 0.9905397 0.99046606 0.99048376
000050 e9 8e 7d 3f 5c 90 7d 3f fd 92 7d 3f 2b 91 7d 3f
       0.9904619 0.990484 0.9905241 0.99049634
000060 3e 90 7d 3f 31 96 7d 3f 28 91 7d 3f d9 8c 7d 3f
       0.9904822 0.990573 0.99049616 0.9904304
000070 ad 8c 7d 3f 39 91 7d 3f 5d 90 7d 3f
       0.9904278 0.9904972 0.99048406

conv_layers.1.norm.bias f4 [31]
000000 61 a8 dc bb 72 e0 ca bb 2c 59 c7 bb 97 9a b7 bb
       -0.0067339395 -0.0061913067 -0.006083628 -0.0056031453
000010 3a e7 c9 bb df 89 f8 bb 1a 82 9a bb f7 c1 f0 bb
       -0.0061615976 -0.007584795 -0.0047152163 -0.007347341
000020 de d9 95 bb c3 18 51 bb 1c cc e0 bb 5a d8 e7 bb
       -0.004573091 -0.0031905628 -0.0068602692 -0.0070753517
000030 79 15 79 bb 61 8d c9 b8 74 17 e1 bb a0 d7 c1 bb
       -0.0038007183 -9.610761e-05 -0.006869251 -0.005915597
000040 ce 41 54 bb 65 21 9b bb 2b 75 f6 bb cf 60 c0 bb
       -0.0032387855 -0.0047342055 -0.0075212917 -0.0058709155
000050 f0 d2 bf bb 95 f1 b4 bb ac e1 ae bb 8f 6a b0 bb
       -0.005854003 -0.005521963 -0.005336961 -0.0053837965
000060 1a 37 ba bb ce a3 4b bb 5b 91 a6 bb a6 09 98 bb
       -0.005682838 -0.0031072977 -0.0050832457 -0.004639822
000070 ff e8 de bb 61 76 8c bb 4e e5 ae bb
       -0.0068026776 -0.004286573 -0.005337394

conv_layers.1.norm.running_mean f4 [31]
000000 67 51 a6 bd d1 78 e1 3c b1 b6 0e 3d 18 6e 4a 3d
       -0.08120995 0.02752343 0.034842197 0.0494214
000010 e7 9a d2 bd 03 27 e1 bd d1 cb e9 3c 7d 59 21 be
       -0.102834515 -0.10993769 0.02853957 -0.15756793
000020 76 d8 7e 3d 10 5d 83 3d ad ff 16 3d da e2 e8 bd
       0.062218152 0.06414235 0.036864925 -0.113713935
000030 6c 99 e6 3d 3a 8c 8a bd 4c 73 a4 3d 97 75 3b bd
       0.11259732 -0.06765027 0.08029804 -0.04576644
000040 60 85 5b 3c 7f 79 4e 3d de 08 2a 3e 09 ea 4b 3e
       0.013398498 0.050408836 0.16604945 0.19913496
000050 1e b0 2d 3d 44 e9 c2 3d ac ba bb 3d 7f 2e da 3d
       0.042404287 0.09517148 0.09166464 0.106534
000060 01 20 a2 3d 81 7f 88 bc e7 bf 2e bc 11 29 e6 bc
       0.079162605 -0.016662361 -0.01066587 -0.028095754
000070 ac a5 8a 3d 84 aa 14 3e e1 34 59 bd
       0.06769881 0.14518172 -0.053028945

conv_layers.1.norm.running_var f4 [31]
000000 43 ab f9 3d 83 cc 1b 3e 67 1b 0f 3e 50 11 13 3e
       0.12190869 0.15214734 0.13975297 0.14362073
000010 d8 4c 57 3e c5 cd 6c 3e 12 19 29 3e f0 50 34 3e
       0.21025407 0.2312537 0.1651347 0.17609
000020 19 36 2f 3e 53 83 21 3e 08 c7 00 3e 78 b0 16 3e
       0.1711048 0.15772752 0.12575924 0.14715755
000030 34 6e 0d 3e 86 d2 1f 3e bd 66 3f 3e e5 8d 46 3e
       0.1381157 0.15607652 0.18691535 0.19390066
000040 c1 61 06 3e a0 f3 0e 3e 5c 04 4e 3e 08 77 2d 3e
       0.13123228 0.13960123 0.2011885 0.16939938
000050 2b 44 65 3e fd bc 4c 3e b9 7d 08 3e f2 e2 11 3e
       0.22389285 0.19993968 0.1332921 0.14246729
000060 fb a5 05 3e 74 b6 17 3e b2 40 3f 3e 71 be 13 3e
       0.13051598 0.14815694 0.18677023 0.14428116
000070 44 bb 1a 3e c3 62 08 3e a3 6b 42 3e
       0.15110499 0.13318925 0.18986373

conv_2d.0.kernels.0.weight f4 [256, 3, 1, 1]
000000 45 72 09 3e 94 35 73 3d 68 74 8e bd c7 47 67 3d
       0.13422497 0.059377268 -0.069557965 0.056464937
000010 13 84 41 bc 5a 15 57 bd 9c ce f8 bd c8 d0 81 3d
       -0.011811274 -0.052510597 -0.121487826 0.0633865
000020 45 22 af 3d 59 4a 04 3c f7 6c 61 3d 58 dc 2b bd
       0.08551458 0.0080743665 0.055035558 -0.041958183
000030 6b 12 4c bc 08 57 e7 3d 47 b7 34 3d b5 50 e1 bc
       -0.012455563 0.11295897 0.0441201 -0.027504304
000040 68 1e 94 ba 86 08 05 3c 5e 17 85 3d 6c 9e 77 be
       -0.0011300566 0.008119708 0.064985976 -0.24181527
000050 d7 20 d7 bc ad 8d cb bd ca f7 ec 3d 96 05 20 bd
       -0.026260776 -0.09939132 0.115706995 -0.039067827
000060 59 ff 1b 3d 6b a1 4a bc e7 4c 9d bb 69 a9 84 3d
       0.038085315 -0.012367587 -0.0048004272 0.06477625
000070 1d f6 4c 3d 1d 37 bd 3d 40 79 ec bc 09 02 b8 b9
       0.0500394 0.09239028 -0.02886641 -0.0003509673
000080 48 e6 3e 3e 4c ef b6 3d 02 cd 2e bd b6 3a 09 3e
       0.18642533 0.08932361 -0.04267598 0.13401303
000090 d1 b2 dc bd f4 63 d8 3c e4 40 d7 bc d2 22 2b be
       -0.10776294 0.026414849 -0.02627606 -0.16712502
0000a0 ec 90 65 3d f8 c9 fd 3b 6e 27 20 3e f8 41 e3 bc
       0.05604641 0.007745024 0.15640041 -0.027741417
0000b0 bc 13 77 bd b9 18 cb 3c 56 fa ea bd f4 d2 0d 3e
       -0.060321555 0.024792062 -0.11473529 0.13850003
0000c0 d2 6b eb 3d 5b 44 be 3c 05 20 b3 bd 17 d1 5f bd
       0.114951745 0.023225954 -0.087463416 -0.054642763
0000d0 4c f8 c7 bd 40 32 bf 3d f9 86 87 be cf 6f 7b bd
       -0.09764156 0.09335756 -0.26470163 -0.061385926
0000e0 8c 2a be bd db ab a0 3d b3 30 9c 3c ad c4 e7 3d
       -0.09285459 0.07845279 0.01906619 0.1131681
0000f0 bf c8 29 bd 08 a1 32 bd c4 72 56 bd 9f 1e d2 3b
       -0.041451212 -0.043610603 -0.052355543 0.0064123417
000100 22 63 8a bd 39 be 4f 3e 07 04 37 3e 04 e1 08 be
       -0.06757189 0.20287408 0.1787263 -0.13367087
000110 10 fc 1a be 40 91 a4 3c 6f 6a 86 3d 44 58 d9 3d
       -0.15135217 0.020088792 0.06563269 0.106125385
000120 2a 0b 7f bb e2 4e 2b 3e 33 32 3a 3d 9e 16 0d be
       -0.0038916566 0.1672931 0.04545803 -0.13778159
000130 45 b0 43 be 00 44 d3 3d 8f 95 07 3c 22 88 42 bc
       -0.1911021 0.10315704 0.008275404 -0.011873277
000140 48 18 57 bc e7 3f 6d bd ba 1e 13 3d bb 1a ad bc
       -0.013128348 -0.05792227 0.035917975 -0.02113091
000150 2f 16 fc 3d 0c 20 b7 bd d8 a4 13 be 9d d8 cb bb
       0.12308919 -0.08941659 -0.14418352 -0.0062208907
000160 37 27 a4 3c f6 15 09 3e b4 54 0e bd 55 df 81 bd
       0.02003823 0.13387284 -0.034748748 -0.06341425
000170 b2 44 09 3d 71 53 e3 bc 0e 2c dc 3d c8 eb 80 bd
       0.03351278 -0.027749749 0.1075059 -0.06294972
000180 58 9f 91 3d d0 1e 76 3d 62 04 47 3b 5c 99 ed bb
       0.071104705 0.06008798 0.0030367603 -0.007250948
000190 02 2a a8 bd 23 e9 83 bd 4c 38 35 3d cb d8 6a 3c
       -0.08211137 -0.06440952 0.044243142 0.014333914
0001a0 6a 05 c2 3d de f3 31 3e 18 92 d0 bd db 8e f8 bc
       0.09473689 0.17378184 -0.10184115 -0.030341556
0001b0 2a 80 92 bb e7 45 c6 3d 16 48 38 3e 92 ea 02 3d
       -0.0044708448 0.096813016 0.17996249 0.031961985
0001c0 0a c3 aa 3d 49 4b d0 3d 6d 1c 46 be 22 07 c7 bd
       0.08337982 0.101706095 -0.19346781 -0.09718157
0001d0 e3 81 c2 3d 37 c7 29 bc 10 b6 c0 3d 99 ce e9 3d
       0.0949743 -0.010362438 0.09409726 0.114163585
0001e0 4a dd 48 bd 2e 34 8d bd 28 67 30 bd fb 71 9d ba
       -0.049039163 -0.06894718 -0.043067127 -0.0012012118
0001f0 c9 92 b5 bd 77 de 4e 3e 24 a2 bd 3d 46 8c 17 3e
       -0.08865888 0.20202051 0.092594415 0.14799604
000200 2b e8 ec 3b e4 59 ba bd d8 2a 3e 3d f4 a3 f0 bc
       0.007229825 -0.090991765 0.046427578 -0.029375054
000210 d1 21 53 3d ac 0c a8 3d c9 1b 60 3d 0f 0e 23 be
       0.05154592 0.08205542 0.054713998 -0.15923332
000220 a3 15 2d 3e 6d 23 2f bd 01 85 8e bd 36 20 09 be
       0.16902785 -0.042758394 -0.06958962 -0.13391194
000230 92 38 f8 3c 79 ea 1c be 4a 10 79 bd 32 ec 05 3d
       0.030300412 -0.15323819 -0.06080655 0.032695957
000240 a6 ab c3 3c 07 3a f2 3d 9f 50 fa 3d 10 e2 e6 bc
       0.02388556 0.11827474 0.122224085 -0.028183967
000250 5b 5f 00 3d 2e 60 e4 bc f7 a4 23 bc 40 fd 5a be
       0.031340938 -0.027877893 -0.009988061 -0.2138567
000260 d2 1f 80 3d ca ea ea 3c bf 81 37 3d 67 88 98 3c
       0.06256069 0.02867641 0.04480147 0.01861973
000270 86 6a 98 3c 52 b0 97 bd 83 85 a7 bd db f0 23 3d
       0.018605482 -0.07406677 -0.08179762 0.04002462
000280 2c 68 ed 3d 2a 0d b6 bd 5b f5 a2 3c ed 5a 19 bd
       0.11592135 -0.088892296 0.019892385 -0.03744023
000290 44 2f 28 3d 78 d0 be 3d 45 21 ac bd b6 60 de 3c
       0.0410607 0.09317106 -0.08404783 0.027145725
0002a0 26 c0 35 3c 16 45 36 3e ea c8 e0 3d fd b9 dc 3b
       0.011093175 0.17799792 0.10975821 0.0067360387
0002b0 e2 d2 ca 3c f4 fb 33 3e 92 ab 30 bd fa 4a f3 bd
       0.02475876 0.17576581 -0.043132372 -0.11879535
0002c0 32 7f b6 3d 5f 3c 7e 3e 66 1d d7 3d 84 26 5a bd
       0.08910979 0.24827717 0.10503654 -0.053259388
0002d0 92 c6 d0 bd 0e 7e e1 3d d8 ee 80 3d ea ac fc 3c
       -0.10194124 0.11010371 0.06295556 0.03084417
0002e0 c8 13 8f bd 59 8c 68 3d fa aa 82 be 3e 06 61 bc
       -0.06986195 0.05677447 -0.2552107 -0.013734398
0002f0 d9 a4 fd 3d fb 00 23 3e 24 5c b9 bb a9 6d 4e 3e
       0.12384958 0.15918343 -0.005656736 0.2015902
000300 cd d2 eb 3d 40 20 9f 3c 2b 9b 27 3c 05 59 91 3c
       0.115148164 0.019424558 0.010229866 0.017742643
000310 44 96 73 3c 70 eb 8d 3d 59 52 44 3d 37 7b 3c 3d
       0.014867369 0.06929672 0.047930095 0.046015944
000320 fd cd b6 bc 76 88 df 3d 99 a3 28 3d 88 d2 d7 3d
       -0.02231502 0.109147 0.041171644 0.105382025
000330 d5 4f 88 3d 8a 81 00 be 23 53 f2 3a ff 73 59 bc
       0.06655852 -0.12549415 0.0018487911 -0.0132722845
000340 91 86 e0 bc 11 a2 12 be 80 b4 d6 bc b0 e7 e0 3d
       -0.027407916 -0.14319636 -0.026209116 0.10981691
000350 a0 c4 49 be ab 22 c9 b8 19 e2 9d 3d 83 38 a6 3d
       -0.19703913 -9.590884e-05 0.0770914 0.081162475
000360 7b 6e 8a 3d d0 06 56 3c af 47 64 3d 1d 91 5f 3d
       0.06759354 0.013063148 0.055732425 0.05458175
000370 9d e2 46 3a 30 9c 57 3d 03 ba cf bb 67 b1 ac bd
       0.00075868686 0.052639186 -0.006339313 -0.08432274
000380 09 32 29 be f2 89 0f 3c 40 af b8 bc 54 c9 3e be
       -0.16522993 0.008760916 -0.022544503 -0.18631488
000390 d8 3c f4 bc 4d 91 cd bd 54 65 1d bd b6 58 b6 bb
       -0.029814169 -0.100374795 -0.038426712 -0.0055647744
0003a0 56 c1 46 3d 0f 1e ed bc a2 40 76 bc 82 50 99 3c
       0.048524223 -0.028944997 -0.015030058 0.018715147
0003b0 3a 7a 54 bc f0 e3 7e 3d 0b 85 16 be 69 d5 61 bd
       -0.012968594 0.062229097 -0.1469919 -0.055135164
0003c0 3f 25 de 3c b0 0d 5e bc e2 97 a5 bd 3b 2e a7 bc
       0.02711737 -0.013553068 -0.0808561 -0.020407787
0003d0 50 9c 95 3c 35 c3 de 3d 62 9f 9d 3b 0f 7a 09 3d
       0.018263012 0.108770765 0.0048102597 0.03356367
0003e0 59 fb 36 3d 8f d5 8c bd a9 6c 8a 3d 71 5e a5 3d
       0.044673298 -0.068766706 0.067590065 0.08074654
0003f0 bb 0a 83 3c 30 ea 25 3d 07 64 90 3d 3c 51 27 3d
       0.015996328 0.04050654 0.07050329 0.040848956

conv_2d.0.kernels.0.bias f4 [256]
000000 db 2b 0f bb f6 6c 68 3a a5 ae 07 3b 4f bc 7b 3a
       -0.0021846208 0.0008866334 0.0020703461 0.00096029503
000010 b5 2a 19 3a 42 33 95 b9 f2 cd f8 ba be 2a b5 b9
       0.00058428507 -0.00028457685 -0.0018982275 -0.00034554856
000020 8d 8e c3 ba 73 c5 11 ba 69 a1 fc 3a 23 8d b6 ba
       -0.0014919803 -0.0005560733 0.0019274178 -0.001392756
000030 c4 1e 4d ba 6a a6 34 bb 4a fb 6a bb 7e d8 80 3a
       -0.0007824714 -0.002756501 -0.0035855346 0.0009830145
000040 47 e0 71 3a 17 98 4d 3a 14 b5 06 bb bd 3e 98 3a
       0.00092268403 0.00078427925 -0.0020554708 0.0011615377
000050 a6 34 7c ba e1 8c 77 3a 14 b3 e9 3a 5f 50 7c ba
       -0.00096208823 0.0009443295 0.0017829859 -0.00096250133
000060 be bb a4 ba 37 c7 0e bb d8 32 a8 3a be 00 b7 ba
       -0.0012568159 -0.0021786222 0.0012832535 -0.0013962013
000070 52 60 44 3b 75 95 ed ba db b3 7a 39 3b a9 6c 3a
       0.0029964638 -0.0018126207 0.0002390886 0.0009027903
000080 f8 ec b6 ba 4c 69 84 3a e1 3e 78 ba b7 59 65 ba
       -0.001395612 0.0010102182 -0.0009469819 -0.00087490253
000090 20 5e 00 39 c0 a9 b3 3a 48 39 93 b8 76 8a a7 ba
       0.00012242096 0.0013707206 -7.020176e-05 -0.0012782353
0000a0 4d 71 da 39 c8 e2 c7 3a b9 be 7e 3a c3 94 1c 3a
       0.00041664616 0.0015250081 0.0009717751 0.0005973095
0000b0 12 d3 89 ba a0 cc ef 38 df cf 12 3a 0e 4c 96 39
       -0.0010515174 0.000114345225 0.0005600433 0.00028666895
0000c0 e0 98 b3 ba 2a 6c 71 ba fe f7 11 39 95 6f 96 ba
       -0.0013702177 -0.0009209538 0.00013920662 -0.0011477346
0000d0 76 4a 80 3a 6f 92 75 3a 43 e3 88 ba 99 5a fe ba
       0.0009787816 0.00093678286 -0.0010443706 -0.0019405662
0000e0 47 0e 47 b7 07 e1 85 39 a3 30 31 ba d2 7f bf ba
       -1.18646485e-05 0.00025535395 -0.00067592616 -0.0014610237
0000f0 90 99 0c ba 32 99 92 3a d5 bd 18 bb 9f 67 2e bb
       -0.0005363459 0.0011184572 -0.0023306508 -0.0026612056
000100 a2 e9 b8 39 30 66 61 bb fd eb 12 bb fe 77 1c 3a
       0.00035269285 -0.0034393184 -0.0022418492 0.0005968808
000110 5d a9 59 bb 81 6b db ba 4f 0c fa b9 35 b5 0f ba
       -0.003321252 -0.0016740413 -0.00047692886 -0.0005482019
000120 d3 8b 95 3a d3 3b d0 ba b8 f9 68 ba 6d 7c 4d 3a
       0.0011409469 -0.001588697 -0.00088873086 0.000783867
000130 89 26 ba b8 d6 68 43 ba 94 22 1e ba ed 61 80 3b
       -8.876349e-05 -0.00074542814 -0.0006032374 0.0039179237
000140 c5 36 99 ba 24 c0 53 bb 87 81 48 bb b2 80 42 b9
       -0.0011689296 -0.003231057 -0.0030594782 -0.00018549224
000150 ff 0a fb ba 47 7c af ba c1 77 87 3a 48 bb c6 b8
       -0.0019153057 -0.0013388478 0.0010335372 -9.4762596e-05
000160 33 ec 4c 3a 65 2d c2 3a 76 be ac ba b5 d5 1d 3b
       0.0007817179 0.0014814554 -0.001317932 0.0024083678
000170 e4 ac a4 3a b4 c0 99 b7 20 31 24 b8 69 e7 97 ba
       0.0012563732 -1.8328756e-05 -3.91464e-05 -0.0011589351
000180 37 2c d9 3a 16 ef be ba 63 7e 25 3b 9a 4e 7d 3a
       0.0016568963 -0.0014567103 0.0025252334 0.00096628966
000190 e0 a0 11 3b ed d0 d8 39 fd 99 e0 3a 89 77 95 ba
       0.0022221133 0.00041354392 0.0017135736 -0.0011403422
0001a0 b7 8f 19 3a 18 a5 c6 ba c9 b4 a1 ba 7d fd b6 ba
       0.0005857902 -0.0015155403 -0.0012337203 -0.0013961043
0001b0 a6 a6 c2 ba dd 87 03 3a 3b 9d bf ba c2 4f 53 3a
       -0.001485069 0.00050174986 -0.0014619002 0.0008060896
0001c0 65 0d 37 b9 cd a6 9b 3a 6b d5 9e 39 18 94 0a ba
       -0.0001745723 0.0011875272 0.00030295117 -0.000528635
0001d0 2d ec 5d 39 a5 f6 3c 3a cc fc 21 ba fe c3 65 3a
       0.00021164185 0.0007208384 -0.0006179332 0.0008764862
0001e0 49 c2 10 bb 20 68 48 3a 7d c0 7d ba 34 ea f7 b8
       -0.002208846 0.00076449104 -0.0009679867 -0.000118215015
0001f0 95 90 0d 3a cc 74 c4 ba 2f 1f bc ba 6b cd 3a 3b
       0.00054002675 -0.0014988421 -0.0014352555 0.0028503786
000200 10 b9 1a bb c2 94 1b bb ee d8 64 bb 8f 58 a7 ba
       -0.002360884 -0.002373979 -0.003491934 -0.0012767481
000210 2b e8 e0 38 34 55 47 ba 26 80 02 bb 9e 7a 83 3a
       0.00010724397 -0.0007603944 -0.0019912808 0.001003105
000220 bc 4d 56 ba 05 f2 ad ba 5e 91 91 3a 05 af b2 b9
       -0.00081750355 -0.001327098 0.0011105945 -0.00034081205
000230 83 45 58 3a e7 4a 29 ba 99 8f 96 3a 21 59 a3 3a
       0.0008250104 -0.00064579997 0.0011486887 0.0012462476
000240 6f ef 83 ba 65 10 7e 3a d7 0b 17 3b 49 be 6a ba
       -0.0010065864 0.0009691774 0.0023047829 -0.00089547463
000250 fe 0e fc 38 be 10 26 bb b8 3f 6c 3a cd 79 81 3a
       0.00012019089 -0.002533957 0.00090121804 0.0009878218
000260 8a 0f 0f bb fe fb 01 bb 1a 4d 96 ba c8 42 d7 ba
       -0.002182933 -0.0019834037 -0.001146707 -0.0016423101
000270 44 68 66 3a 32 76 8a ba 32 88 41 ba 80 d1 2e ba
       0.00087893405 -0.0010563789 -0.00073826604 -0.0006668791
000280 99 44 37 bb 05 29 95 ba 19 0f 29 3a be 58 29 ba
       -0.0027964471 -0.0011380023 0.0006449088 -0.0006460062
000290 f1 e9 c7 3a 90 4d a7 38 27 80 86 ba 5a d8 a7 39
       0.0015252215 7.977628e-05 -0.0010261581 0.00032013917
0002a0 83 92 39 ba cd 0b 50 ba 81 c8 bb ba 59 73 52 ba
       -0.0007079022 -0.0007936329 -0.0014326723 -0.00080280524
0002b0 0f 18 21 bb 4c 2a 83 3a 62 d1 4b 3a 95 d8 f1 b9
       -0.002458099 0.0010007112 0.0007775036 -0.00046128468
0002c0 c4 e0 05 ba 8e f3 ba ba 2e df 87 3a 3d cf b6 ba
       -0.000510704 -0.0014263259 0.0010366195 -0.001394726
0002d0 3c 17 4b ba 3a 9d 8f 3a cc 62 85 39 19 cb 80 ba
       -0.00077472976 0.0010956891 0.00025441346 -0.0009826153
0002e0 58 2a 4b ba b8 70 fe 39 0d 9e bf ba 7a 44 32 3a
       -0.0007750145 0.00048530637 -0.0014619246 0.0006800365
0002f0 ac 56 cc 3a e2 19 45 ba 09 40 24 bb d6 c0 da 39
       0.0015589795 -0.00075188105 -0.0025062582 0.00041723874
000300 96 8c 4f 3a e7 82 52 ba 2a 6a d9 ba 53 5d c2 39
       0.0007917372 -0.000803037 -0.0016587425 0.00037072095
000310 5f 9b 13 39 43 fb ea b9 04 ef 05 3a ea f9 90 ba
       0.00014076893 -0.00044819163 0.00051091635 -0.0011060808
000320 dd 7e e2 39 16 6c e3 3a 24 b9 78 ba 9d 7c 11 3a
       0.000432006 0.0017350938 -0.00094880373 0.000554988
000330 08 aa ff ba 60 7b d4 39 1e 38 dc b8 ed e7 a3 ba
       -0.0019505629 0.00040527713 -0.0001050087 -0.0012505032
000340 3c de 62 b9 5e 5a 8b 3a 0a 9e bf 3a fd d3 85 bb
       -0.00021635828 0.001063179 0.0014619243 -0.004084109
000350 ef 02 b1 3a 83 99 bd ba 57 8c ca 39 c9 69 96 3a
       0.0013504903 -0.0014465306 0.00038633004 0.0011475618
000360 68 66 99 3a 21 28 30 ba 3d 78 d7 39 be b3 11 ba
       0.0011703493 -0.0006719847 0.0004109758 -0.00055580947
000370 15 d1 18 ba 1f 52 41 bb a3 18 71 3a 94 f4 d3 ba
       -0.00058294955 -0.002949841 0.00091970916 -0.0016170912
000380 68 08 cb 39 d4 a6 e0 ba 91 8b 78 ba bc 18 9d 3a
       0.0003872544 -0.0017139562 -0.0009481246 0.0011985521
000390 7c d2 3d bb 37 f5 4f 3b 05 64 01 ba f0 05 83 39
       -0.002896457 0.0031731853 -0.00049358635 0.0002499069
0003a0 d1 c1 54 39 cf f2 f1 39 e6 58 63 ba c5 60 65 ba
       0.00020290098 0.0004614801 -0.00086726097 -0.00087500765
0003b0 d1 43 6f 3a e0 e4 d1 3a eb 78 f4 ba a8 96 32 bb
       0.0009127232 0.0016013645 -0.0018651759 -0.0027250443
0003c0 4b e6 ae b9 ae e7 27 3a 66 5f b2 3a b4 f4 f3 3a
       -0.00033359448 0.00064050674 0.0013608753 0.0018612356
0003d0 b1 b1 dd b8 3c 32 af ba e4 73 25 3b 98 07 57 b9
       -0.00010571199 -0.0013366411 0.0025246078 -0.00020506827
0003e0 e2 38 7a bb c0 53 86 ba 5d d8 33 39 3d 70 cc ba
       -0.0038180877 -0.0010248348 0.00017151372 -0.0015597414
0003f0 51 81 00 3b 2f fd b4 ba ec 5c b4 ba 6e 3c b3 ba
       0.0019608329 -0.0013808365 -0.0013760603 -0.0013674626
