Forecast/forecast_utils/STD_Phy_util/save/gas_improve/STD_Phyexp1_0.pth (torch, 773536 bytes, 349 tensors)

stae.nodevec1 f4 [4, 10]
000000 04 f4 76 3f 7a 9e 0b 3f 4a ab 80 b8 49 90 ff be
       0.9646609 0.5453869 -6.135421e-05 -0.49914768
000010 1f 52 4d b2 c8 86 c4 bd ca eb d2 3a 30 01 ba ba
       -1.1951243e-08 -0.0959602 0.0016091999 -0.0014191028
000020 4c 07 36 b9 30 b6 32 3e 08 0c 98 bd db 8c a6 39
       -0.00017359591 0.17452312 -0.0742417 0.00031766933
000030 22 09 a1 be e1 7d fd 3d 19 08 16 af 5a 0a a7 3d
       -0.3145228 0.12377525 -1.3645297e-10 0.08156271
000040 39 fd 04 be 62 19 9b 3b a3 5d bc bb 91 5b 47 b8
       -0.12987222 0.0047332505 -0.005748467 -4.7530575e-05
000050 83 11 25 3b 68 16 e1 37 ad 69 3d 3e dc f8 8a 3c
       0.002518744 2.6832524e-05 0.18497343 0.016964369
000060 02 67 45 2a 7f 12 03 3f 69 d2 a0 39 5c 54 c8 bd
       1.7532853e-13 0.512001 0.00030674346 -0.09781715
000070 86 98 a6 3b d1 21 31 b4 de 99 93 bd c4 9e c8 38
       0.0050841 -1.6496712e-07 -0.07207082 9.5663156e-05
000080 35 24 15 bf 88 38 70 3e 57 fa 73 2a 58 9e 97 3f
       -0.5825837 0.23459065 2.166959e-13 1.1845198
000090 ed d8 9d 3e 08 bf 1a bd a7 6e f5 bb 45 70 d3 b1
       0.30829564 -0.037779838 -0.0074899974 -6.153672e-09

stae.nodevec2 f4 [10, 4]
000000 a0 d1 e2 bd eb bd c3 ba c4 b4 73 3f ae fa 05 3b
       -0.11075139 -0.0014933919 0.951977 0.0020443606
000010 95 de 2c 38 7a 06 19 bb 5f 93 0a 3f 91 77 45 b7
       4.121529e-05 -0.0023349808 0.5413112 -1.1769954e-05
000020 f5 b0 03 bf c8 20 05 3b 23 3b f7 b6 f5 26 80 3e
       -0.5144189 0.0020313729 -7.368058e-06 0.25029722
000030 73 03 69 3e 5d c4 3a ba c3 e6 e8 be 97 45 ce bd
       0.22755222 -0.00071245973 -0.45488557 -0.10071867
000040 bb a6 45 ad cf b2 dd 31 23 d3 4d b2 70 81 85 29
       -1.1235175e-11 6.4522747e-09 -1.1980577e-08 5.92884e-14
000050 f8 6f 67 3e b9 b7 4d bb 27 50 c4 bd 9e d4 95 3f
       0.22601306 -0.0031390025 -0.095856 1.1705511
000060 28 1f d2 be 9a 82 6e bb f9 46 12 3a 75 f8 f9 3c
       -0.41039395 -0.0036393763 0.0005580034 0.030513981
000070 4f 0e b8 bb a0 49 6d 3b 6c 61 1d ba 86 81 e8 bd
       -0.00561694 0.0036207214 -0.00060035917 -0.1135283
000080 32 d7 fa bb 2a 43 05 3b 59 7f 6c b8 ab 1d 4f 3b
       -0.007655048 0.0020334222 -5.6385386e-05 0.0031603377
000090 82 1b d6 b4 45 93 0e bb 1e 71 31 3e 65 2d 7e b4
       -3.988062e-07 -0.002175526 0.17328307 -2.3672108e-07

stae.nodevec1_trans f4 [4, 10]
000000 43 36 6d 25 15 a9 5e 1e 9d 42 af 97 74 24 15 33
       2.0574858e-16 1.17875475e-20 -1.13259255e-24 3.472492e-08
000010 af f2 e6 38 9b 9f 9d 98 43 61 11 bd 47 52 af 3a
       0.00011012458 -4.074471e-24 -0.035493147 0.0013375961
000020 38 57 4a 9a 50 95 32 bb 29 3c d0 25 5a e9 56 9e
       -4.1843076e-23 -0.0027249642 3.6123014e-16 -1.1377322e-20
000030 0d 3d bf 1b 1b 0c 92 33 25 d7 6c 3c 4d c4 84 99
       3.1637753e-22 6.800857e-08 0.014455591 -1.3727765e-23
000040 00 5c 31 be 09 0a 49 3d 54 11 8a 9a cd 00 75 bd
       -0.17320251 0.049081836 -5.710346e-23 -0.059815217
000050 62 7c 40 25 e1 9b c4 9d 92 b3 ba 1b d3 bd 0f 33
       1.6695488e-16 -5.2041943e-21 3.0887163e-22 3.3467426e-08
000060 8c 39 0e 3c 03 d9 1d 99 7a d4 13 bf 5e 50 fa 3c
       0.008680712 -8.160535e-24 -0.5774609 0.0305559
000070 ae a8 cd 9a af 35 2e bd 1f ca 5e 25 65 66 d2 9d
       -8.505853e-23 -0.042531665 1.9323912e-16 -5.569241e-21
000080 8a 24 71 1b 0a 0f 14 33 45 63 c5 3b 16 41 3b 99
       1.9946859e-22 3.4472613e-08 0.0060237967 -9.6808174e-24
000090 5b 83 9e be b3 f1 b3 3c 4c d7 b9 9a fd 22 ea bc
       -0.3095959 0.021965837 -7.686204e-23 -0.028581137

stae.nodevec2_trans f4 [10, 4]
000000 10 64 5d 25 85 42 00 26 85 39 f3 a5 36 c5 29 a5
       1.9202597e-16 4.449907e-16 -4.2192757e-16 -1.4725231e-16
000010 c6 2e eb 9d d9 e0 12 9e 03 a4 90 1e 1e 49 3e 1e
       -6.2252345e-21 -7.775673e-21 1.5314427e-20 1.00736365e-20
000020 4b 01 bc 1b 12 e9 a2 1b b8 c6 05 9c 5f 72 69 9b
       3.1102827e-22 2.695127e-22 -4.4262847e-22 -1.9310264e-22
000030 dd 44 27 33 ad c4 ae 33 39 68 cc b3 e5 b4 f9 b2
       3.894535e-08 8.1382815e-08 -9.518448e-08 -2.9069676e-08
000040 00 b8 d3 3b af 5b 86 3c bf 52 7a ba 9f 34 c5 bb
       0.0064611435 0.01640114 -0.00095490733 -0.006018236
000050 31 a5 76 99 8f 27 48 98 49 5f bc 19 00 be 2d 19
       -1.2751262e-23 -2.5869366e-24 1.947723e-23 8.9822606e-24
000060 57 ac 5d be e5 04 20 bf 9c c3 89 3a 39 4f e5 bc
       -0.21647774 -0.6250747 0.0010510567 -0.027991878
000070 bf 5f a9 3c 82 8d 66 3d 02 03 81 ba c0 ff aa bc
       0.020675538 0.056287296 -0.0009842815 -0.020873904
000080 e7 70 81 9b f2 42 06 9b be a9 ff 18 0d 24 e9 1a
       -2.141422e-22 -1.1105851e-22 6.608735e-24 9.6424785e-23
000090 f2 80 d1 bc 48 09 97 bd 76 25 82 3a 5a ff b9 3c
       -0.025574181 -0.07374817 0.0009929377 0.022704769

stae.filter_convs.0.weight f4 [32, 32, 1, 2]
000000 a0 0e a1 bc 55 c4 8c 3d e1 e5 09 3d f0 97 79 bd
       -0.019660294 0.06873385 0.033666495 -0.060935915
000010 77 56 2b bd 2a 18 86 bd 64 28 1d bd 20 d0 42 bd
       -0.041830506 -0.06547578 -0.038368598 -0.047561765
000020 9b 61 b5 bc 96 3c 87 3d 31 90 0f bb 72 b7 39 bd
       -0.022141268 0.06603353 -0.0021906013 -0.045340963
000030 fe 96 66 bd 72 e0 6d 3d 75 11 e7 bc 10 6c 06 bd
       -0.05629634 0.058075376 -0.028206566 -0.0328179
000040 58 44 05 3d 8e 7a 13 bd cf aa ce 3b 42 71 a7 bc
       0.03253588 -0.03600555 0.006306983 -0.020439748
000050 e5 67 64 bb 88 8e 22 bd 66 d0 3c bc dc 56 eb bc
       -0.0034851965 -0.03968671 -0.011524295 -0.028727941
000060 eb b7 dd bb 96 d4 0a 3c 36 ef 56 bd 10 46 1d bd
       -0.0067663095 0.008473536 -0.052474223 -0.038396895
000070 ea 6e a4 3b 0d 8d 21 3d 02 32 fc 3c 75 cf a0 3d
       0.005018105 0.039441157 0.030785564 0.07852069
000080 74 dd 29 3d 07 ef 86 bd d7 12 21 3a 70 c7 5a 3d
       0.04147096 -0.065885596 0.000614447 0.053412855
000090 94 07 1a ba 6f a3 0b bc 7d 55 20 3d 74 52 b8 39
       -0.0005875763 -0.008522852 0.039144028 0.00035156647
0000a0 64 b1 2b bd 9b d2 50 bd 7d 1a b0 bb 32 d3 4d 3d
       -0.04191722 -0.0509821 -0.0053742514 0.05025024
0000b0 9b 7a 8d 3b 75 3d 23 3d 50 81 1e bd 04 94 7e bd
       0.004317594 0.039853532 -0.03869754 -0.062152877
0000c0 44 a3 ee bb e2 45 41 3d 9d 68 0b 3d 6f 79 64 bd
       -0.0072826464 0.047185786 0.034035314 -0.05577987
0000d0 49 a8 eb bb 79 d3 67 38 0d 4a 3e bd 27 85 f3 3c
       -0.007191692 5.527164e-05 -0.04645734 0.029726578
0000e0 f6 1d 32 3c 01 86 f8 3c 53 e6 72 bd 2f 40 55 3d
       0.010871401 0.030337336 -0.059301686 0.052063163
0000f0 2c fc 76 bd 73 ad ef 3c 15 66 36 3d 8a 01 0c 3d
       -0.060299084 0.029257512 0.044530947 0.034181155
000100 58 87 2c 3d 94 36 05 bc a8 74 c7 bc a5 45 f0 ba
       0.04212126 -0.008130688 -0.024347618 -0.0018331303
000110 47 89 45 ba 28 3e ac bc 3f 91 13 ba 04 27 42 3c
       -0.00075354095 -0.021025732 -0.00056292483 0.011850122
000120 36 a5 f9 3c 31 21 22 3d 14 90 29 bd fe d1 06 bd
       0.030474287 0.039582435 -0.04139717 -0.032915108
000130 84 ed 6c 3c fc 27 22 3d 0e 42 b2 bc e2 6c 00 bd
       0.014460925 0.039588913 -0.021760013 -0.03135384
000140 b5 78 9b 3c 22 6a af bb 36 b4 5d 3c a4 05 b9 bc
       0.018978456 -0.005353228 0.013531735 -0.022585697
000150 f7 f6 8a bc 9d a5 fd bc ee 2f 83 bb 9e 6a 42 bc
       -0.016963465 -0.03096276 -0.0040035164 -0.01186624
000160 c1 76 a2 bb 9a f3 97 bb 20 27 f8 bc b8 e8 6f 3d
       -0.004958004 -0.004637194 -0.030292094 0.058571547
000170 5b 13 97 3c 6d a8 38 3d 8a 74 22 bd 58 99 70 bc
       0.018441847 0.0450825 -0.03966192 -0.0146849975
000180 e7 1d 9e 3c 93 f6 b9 bc 0a c8 53 bc c1 92 a8 3c
       0.019301368 -0.022700584 -0.012926111 0.02057779
000190 f4 21 62 3a bb 4b 5f bb 86 fb 11 3c db 58 04 3d
       0.0008626275 -0.0034072238 0.0089100655 0.0323113
0001a0 30 6a 9c bb 47 c0 3e bc 1f 66 9b bc d6 37 4e 3c
       -0.0047734007 -0.011642522 -0.018969594 0.0125865545
0001b0 d4 b8 9f 3c 29 06 38 3d 94 d3 83 bc a4 36 06 bd
       0.019497313 0.04492775 -0.0160921 -0.032766953
0001c0 d4 0f 54 3a 97 cd 3f bb 00 c6 3f 3c 00 74 17 bd
       0.0008089517 -0.0029266828 0.011704922 -0.03697586
0001d0 99 3c 7a ba 42 30 d2 3b 2b d1 58 bb a7 61 00 38
       -0.0009545773 0.006414444 -0.0033083658 3.0608524e-05
0001e0 94 65 ab 3a 49 35 3c bb 16 49 3f 3c e5 27 07 3d
       0.0013076537 -0.0028718284 0.01167514 0.03299703
0001f0 4e 9d 14 bd df 7c 24 bd 77 83 42 3d 07 00 8a 3d
       -0.03628283 -0.04015815 0.047488656 0.067382865
000200 86 4b 1c 37 ec 60 6a 3a 79 1a 5d ba 35 28 bc ba
       9.315909e-06 0.0008940834 -0.00084344257 -0.0014355244
000210 41 b8 cf 39 ee 90 3b b9 71 c2 66 38 25 15 db b9
       0.00039619397 -0.000178877 5.501736e-05 -0.0004178669
000220 44 0a 8c 3a a1 91 89 3a 56 2e a1 bb f7 e6 96 38
       0.0010684212 0.0010495671 -0.0049188538 7.195578e-05
000230 ce 23 03 3a 9e 03 a8 3a 12 29 e3 b9 a5 8e 5e ba
       0.0005002589 0.0012818461 -0.00043327414 -0.00084898836
000240 ec 19 db b8 91 79 24 ba 9a 78 4e bb 22 d4 b2 3b
       -0.00010447562 -0.00062742183 -0.003150499 0.005457417
000250 9c 28 98 b9 bb 19 59 ba 3d d4 96 b9 42 e9 41 ba
       -0.00029021956 -0.0008281727 -0.0002876836 -0.0007397124
000260 14 8d 0c b9 10 2e 89 b6 5d 50 0a 3b be 90 e8 ba
       -0.00013403996 -4.0882805e-06 0.002110503 -0.0017743332
000270 a3 5d 92 39 8a 14 5c 3a 87 77 b1 3a ac 69 8c 3b
       0.00027917055 0.00083953945 0.001353965 0.004285058
000280 5e e7 96 b8 9e ea 12 ba bf 73 bf 39 2c 86 40 3a
       -7.195653e-05 -0.00056044187 0.00036516596 0.0007344212
000290 54 76 ff 39 b5 7f 25 3a fe 87 54 38 4c 6a 8e 3a
       0.00048725551 0.00063132803 5.067139e-05 0.0010865419
0002a0 4d b7 99 39 be aa 6f 39 ec 7c b8 39 76 29 8a 3a
       0.00029319004 0.00022856423 0.0003518829 0.0010540921
0002b0 4b b3 96 39 7e 86 66 3a b9 9a db b9 ec 70 2a ba
       0.00028743813 0.00087938446 -0.00041886212 -0.0006501812
0002c0 7e 0e f5 38 ac a2 1b 3a d8 d7 e5 b9 3e 11 85 ba
       0.0001168521 0.0005937021 -0.000438391 -0.0010152233
0002d0 c5 0c 47 39 fd 3c 21 3a e7 af 8c 3a 1c 92 f0 3a
       0.00018982876 0.00061507506 0.0010733575 0.0018354091
0002e0 cf 8d d0 b8 26 2b 02 39 45 7a f6 b8 62 ee 22 3a
       -9.944627e-05 0.0001241384 -0.000117529686 0.00062153314
0002f0 ed 6f 1b ba ef 27 b6 39 1b f1 f3 ba b8 b8 da 3a
       -0.0005929459 0.00034743498 -0.0018611284 0.001668713
000300 03 00 32 bd df 4b 06 bd 10 75 40 bd 51 e8 52 3d
       -0.043457042 -0.0327872 -0.04698664 0.051491085
000310 98 b3 75 bd a5 9f 39 3c 01 93 65 bc f4 93 9b bc
       -0.059985727 0.011329566 -0.014012099 -0.018991448
000320 87 6b 16 3d 52 56 b4 bb 2c 93 7b 3d ac 80 93 3d
       0.03672364 -0.0055034542 0.06141965 0.072022766
000330 8a d3 6a bd 66 4a d5 3c 92 95 1c 3c 78 8d 02 3c
       -0.057330646 0.026036453 0.009557145 0.007968299
000340 26 7d 01 bc bc 0a 07 bc c8 31 5b bd 9d 5f 0f bd
       -0.007903373 -0.008242305 -0.053514272 -0.035003293
000350 42 37 c4 3c ca 8d 5a 3c 81 4e d8 ba 20 07 21 bc
       0.02395213 0.013339469 -0.0016502888 -0.009828359
000360 68 e2 9f 3b b1 19 18 3a 30 77 8e 3d 03 e0 24 bc
       0.0048792847 0.0005802168 0.06956327 -0.010063174
000370 1b 94 5d bb 7a 23 03 bc 64 71 0f 3d 68 49 b9 3d
       -0.0033810202 -0.008004064 0.035020247 0.09047204
000380 f0 de 33 bc 4b a2 9f 3b 21 83 22 3d 1c 13 34 3d
       -0.010978445 0.0048716418 0.039675836 0.043963537
000390 1c d4 97 bc e8 48 5a bc d5 a6 c6 3c dc 7f ea 3b
       -0.018533759 -0.013323046 0.024249474 0.0071563553
0003a0 52 7d 23 3d b0 cc 8b 3b 52 af d6 bc ff 14 c5 3c
       0.039914437 0.004266344 -0.026206646 0.024057863
0003b0 d8 0c f2 3b 9b d4 e1 3c 59 5e 87 3d 5d e2 3f 3d
       0.007386785 0.027567199 0.06609792 0.046846736
0003c0 57 94 b9 3c 23 61 49 3c 1c b1 36 bd f2 a5 1f bd
       0.022653742 0.012291226 -0.0446025 -0.038976617
0003d0 8f 0f 62 ba f8 ad 7c b9 48 41 a8 bb 1e 29 90 bc
       -0.0008623534 -0.00024097401 -0.0051347353 -0.017597731
0003e0 bc 01 3f bc da 73 24 bb 14 c2 77 bc c4 77 12 b9
       -0.011658128 -0.0025093467 -0.015121955 -0.00013968261
0003f0 ca d6 2b 3d ac 06 94 3d 27 38 ac bc 8b 10 8d bc
       0.041952886 0.07227835 -0.02102287 -0.017219802

stae.filter_convs.0.bias f4 [32]
000000 2a f4 8d 3d e0 9a 83 3d 6e 4d 4f b9 74 d0 9b bd
       0.06931336 0.064260244 -0.00019769903 -0.07608119
000010 06 a4 89 bc 03 45 76 bc 60 2f 2e 3d ae ef 67 bd
       -0.016801845 -0.015031102 0.04252565 -0.05662506
000020 43 29 20 bc 1e e4 2f bd a3 06 bc bc 84 94 83 bd
       -0.009775463 -0.04294216 -0.022952383 -0.064248115
000030 78 7b 9f bc 37 89 8f bd b9 24 83 bd d1 de 95 3b
       -0.019468054 -0.070085935 -0.06403489 0.004573681
000040 8e b0 26 3d 35 20 4e 3d da f3 d0 bd 4a 04 3e 3d
       0.04069572 0.050323684 -0.10202761 0.04639081
000050 8b 9e 9c bc 54 c2 99 bd 85 db 44 bc ae 59 50 bd
       -0.019118568 -0.07507768 -0.012015228 -0.050866775
000060 04 b7 8d bd d6 96 70 bd ad 49 b8 bc ea 45 35 3d
       -0.06919673 -0.0587376 -0.022496069 0.04425613
000070 16 83 43 3d a0 f8 e1 bc 4e e6 54 bd c5 0e 20 bd
       0.047732435 -0.027584374 -0.05197745 -0.039076585

stae.filter_convs.1.weight f4 [32, 32, 1, 2]
000000 fb ef ec 3c 9e 56 67 3c 12 d7 ba bc 59 64 1d 3d
       0.028923025 0.014119772 -0.022807632 0.038425777
000010 e2 19 83 bb a7 24 c8 3b 9a ba ca bc 50 16 83 3b
       -0.004000888 0.006107885 -0.024747182 0.0040004626
000020 6b 56 af bb 53 bc 9d bc 02 7a 8f 3c bb 5b df 3b
       -0.005350878 -0.019254839 0.017514233 0.006816355
000030 a2 00 70 3b 8f 24 e3 bc 19 04 47 3c c6 f7 bc bc
       0.003662147 -0.027727393 0.012146973 -0.023067366
000040 cf 8e bc 3b 70 56 92 bb 7d b5 03 bc 4e 3f 3a 3c
       0.005754329 -0.0044658706 -0.008038876 0.011367632
000050 85 d8 09 bb 69 c6 4e 3c 0e 75 cf 3c 84 a8 b2 bc
       -0.0021033597 0.012620547 0.02532437 -0.02180887
000060 df 84 03 ba 2d f5 62 bc 1e a4 02 3d a7 90 2d bd
       -0.0005017053 -0.0138524 0.031894796 -0.04237428
000070 8c 3a e7 3c 9d df 40 bc ad 8f 08 bd de 9a f7 3c
       0.02822616 -0.011772064 -0.033340145 0.030225214
000080 c3 ba 4e ba 88 13 7c bb b0 f2 fe 3b 64 6f 0c bd
       -0.0007886106 -0.003846379 0.0077803954 -0.034285918
000090 cc 9e 9c 3c a1 fd b7 bc 29 e1 0f 3d 4b 8a 1e bc
       0.019118689 -0.022459807 0.03512684 -0.009676526
0000a0 ab 2d 92 bb 82 4c 3c bd cc ce 2a 3d f2 2f a4 39
       -0.0044610105 -0.0459714 0.041701123 0.0003131624
0000b0 a1 33 8a bb ce cc b4 bc 37 cb 2b bb 9d bf 5a 3d
       -0.0042175804 -0.022070315 -0.0026213655 0.053405393
0000c0 72 42 ff bb da 25 3e bd 13 f5 06 3d ab 19 05 3d
       -0.0077899033 -0.046422817 0.032948565 0.032495182
0000d0 84 10 3c 3d 89 10 1a bd bc c4 4f 3d 8a 51 14 bc
       0.045914188 -0.037613425 0.05072473 -0.009052644
0000e0 98 1d 19 bc a7 2d d3 bc 02 b2 ca 3c a7 70 6f 3c
       -0.009345435 -0.025778605 0.024743084 0.014614261
0000f0 2b 78 30 bb 61 f9 12 bb 81 2e e6 3c b7 62 35 bd
       -0.0026927094 -0.0022426473 0.028098347 -0.044283595
000100 7f b7 a3 ba 2a 91 26 3b 68 5b bf 3b db 29 6a bb
       -0.0012490599 0.0025416114 0.005839754 -0.0035730514
000110 fb 78 98 b9 9a 4e ba b9 f8 c4 d1 ba 45 d1 45 ba
       -0.00029081837 -0.00035535247 -0.0016004136 -0.0007546137
000120 06 f0 56 3b e1 c4 d7 3a 8e 9a 44 bb 06 98 a2 b9
       0.0032796874 0.0016461873 -0.0029999348 -0.00031012314
000130 c9 6b 85 3b 71 3e 2f 3b 90 4d ae bb 07 27 dc 3a
       0.004071687 0.00267401 -0.0053193048 0.0016796299
000140 84 c9 39 3b 17 ea fd 39 68 ad 0d bb ab 04 61 bb
       0.0028348872 0.0004843033 -0.002161825 -0.0034335058
000150 c5 2c 91 ba 46 d1 cb 3a c7 3a 2c 3b 35 af 2f 3b
       -0.0011075964 0.0015550039 0.0026280151 0.0026807312
000160 3d 88 02 bc fa eb 6c b7 be 4c c6 ba df 39 f0 ba
       -0.007967052 -1.4121639e-05 -0.0015129072 -0.0018327794
000170 d1 0c e9 ba af 30 c7 ba f8 81 0f bb b7 2a 94 bb
       -0.0017780309 -0.0015197004 -0.0021897536 -0.0045216936
000180 bd ef 27 bb c4 8e 2f bb 98 06 17 3a e0 c0 5d 3b
       -0.0025625073 -0.0026787976 0.00057611754 0.0033836886
000190 bd 40 6d ba b8 0f 1f ba 07 13 19 bb ce a5 b0 3b
       -0.0009050479 -0.0006067711 -0.0023357288 0.005390859
0001a0 58 1d d4 ba ff 47 c8 bb 24 99 a6 3b 41 c3 20 3b
       -0.0016183062 -0.006112098 0.0050841738 0.0024530443
0001b0 10 a7 d2 ba b9 3a 30 3b ef 3c 47 3b 8d 84 c2 39
       -0.0016071517 0.002689047 0.003040131 0.00037101322
0001c0 f7 7b 9c ba bd 38 3a ba ce ab ce ba e3 fd 65 bb
       -0.00119388 -0.00071037916 -0.0015767755 -0.0035093955
0001d0 46 0f 9e 3a 8d ea 15 3b 66 bd 97 3b af 47 e7 3a
       0.0012058995 0.00228754 0.0046307324 0.0017645265
0001e0 df d9 4b bb ea 32 26 bb 99 6d a5 ba a8 42 b8 3a
       -0.0031105203 -0.0025359937 -0.0012621164 0.0014057951
0001f0 87 cd 12 3b aa 2c 97 3b 68 99 89 3b 18 8e 0f bb
       0.0022400336 0.0046134787 0.0041991957 -0.0021904763
000200 58 7b 0a 3d a1 3c c9 bd 11 9c 26 bd d8 2c 43 bd
       0.033809036 -0.09826017 -0.04067618 -0.04765019
000210 46 86 9a bd 03 ee b5 3d 81 f6 f3 3c 17 5a 5e 3d
       -0.07545142 0.08883288 0.029780628 0.054285135
000220 04 01 55 bc d2 ed 9c bd 6a ba 9f 3d 2a d4 bd bd
       -0.01300073 -0.07662548 0.077992275 -0.09268983
000230 a3 04 26 bd 72 e2 98 bd 98 6a 1d bd ed f3 b9 3d
       -0.040531766 -0.07465066 -0.038431734 0.09079728
000240 a6 c4 a2 3c 02 36 c6 3d 2f e9 d4 bc 9a e5 4d 3c
       0.01986916 0.0967827 -0.025990097 0.012566948
000250 02 10 04 3c b9 75 8d 3b b9 58 f8 bb b3 c7 88 3d
       0.008060457 0.004317012 -0.007578936 0.066787146
000260 55 91 95 3d ec 86 7c 3d 99 61 f4 bc bd 69 0e 3d
       0.073031105 0.06165211 -0.029831694 0.03476881
000270 a9 21 70 bd 42 ed be bc 37 83 8f 3c cd b4 9f bd
       -0.05862585 -0.023306493 0.017518623 -0.07798157
000280 77 9c bd bc cb e1 4e 3b 33 0a 3e 3d d8 f7 21 bd
       -0.023145897 0.0031567689 0.046396445 -0.039543003
000290 09 d3 df 3c 5f da 38 3d 63 40 81 3d f0 d6 ff bb
       0.02732231 0.04513013 0.06311109 -0.007807605
0002a0 60 7c 89 3d 2a ad 57 bd 5f 2e 0f bd 4a fa e6 bd
       0.06713176 -0.052655376 -0.034956332 -0.112782076
0002b0 d5 24 cf bc ac e2 ae bd 7d ad f1 3c 39 45 9e bd
       -0.025286118 -0.08539328 0.029501671 -0.07728047
0002c0 cb 8d 06 3b f4 fb 3e 3d 06 d9 2b bd 71 b2 88 3d
       0.0020531293 0.046627 -0.041955017 0.0667466
0002d0 fa 07 79 bd 4c 94 aa 3c 81 ed f4 bb 91 3f ea bd
       -0.060798623 0.020822667 -0.0074746017 -0.114379056
0002e0 b5 f3 bf 3c 54 77 1f 3c 42 b2 19 3d 95 ba c7 bc
       0.023431638 0.00973304 0.037523516 -0.024380961
0002f0 7a 5f 19 bc 5a fb 31 bd e4 4d b6 3d 68 c6 31 bd
       -0.009361142 -0.0434526 0.08901575 -0.043402106
000300 e3 d3 57 3d a3 e9 31 3d 1b bc a5 bd 6a c7 95 bc
       0.052692305 0.043435704 -0.08092519 -0.018283565
000310 c3 46 a7 bc 31 46 4f bd d7 77 24 bc 9c 95 b8 bc
       -0.020419484 -0.05060405 -0.010038338 -0.022532277
000320 68 13 12 bc 41 33 25 3d 9a 8d 71 3d 97 cd 00 3d
       -0.00891576 0.040332083 0.058972932 0.031446066
000330 ca 2a 99 3b 36 d2 60 bc 30 1a 3a bd a9 df 8d 3b
       0.0046742903 -0.013721993 -0.04543513 0.004329641
000340 ff 46 39 3c 7b 5f 97 bc 0a cf 0a bd 4f 28 36 3d
       0.011308431 -0.018478146 -0.033888854 0.044472035
000350 e5 2b 92 bc e5 b5 8a 3c 1f 19 fb bb 5d 54 bf 3c
       -0.017843196 0.016932437 -0.007662907 0.023355657
000360 29 64 0d 3d 1a d0 aa bc cf 37 de 3c 29 6f e7 3c
       0.03451935 -0.020851184 0.027126221 0.028251247
000370 35 0e 37 3d a1 44 5a bd b5 b8 54 3d 48 69 25 bd
       0.044691283 -0.053288106 0.051933963 -0.040383607
000380 3e 4f bd bc 14 4a b4 bc c7 39 6f bc e6 28 a5 bc
       -0.023109075 -0.02200798 -0.014601178 -0.020161103
000390 c6 00 15 3c aa 7d 63 bc ca e0 7e 3d 7a 64 af bd
       0.009094423 -0.013884941 0.062226094 -0.08564086
0003a0 5c 4b 5a 3d db 74 95 bd 25 39 f5 3c 13 2c e6 bc
       0.053294525 -0.07297679 0.029934475 -0.028097188
0003b0 62 c3 bd bc dd ca 24 3c b7 cc 33 bc 04 fb b4 bc
       -0.023164455 0.010058132 -0.010974101 -0.02209235
0003c0 2a 94 97 3c 99 93 91 bd 65 1c 2f bd 7c fc 9b 3b
       0.018503267 -0.0710823 -0.04275169 0.004760323
0003d0 f6 37 62 bb a8 5b 6b bd da 19 9a 3d da ab 9d bc
       -0.0034518219 -0.057460457 0.07524462 -0.019246984
0003e0 e4 76 cd 3c d0 f6 de bc 16 3a 1e 3d 45 1f 40 bd
       0.025081106 -0.027217299 0.038629614 -0.04690482
0003f0 2d 18 b3 bc d7 ea 75 3c aa d1 1c 3d 4c 84 68 3d
       -0.021862114 0.015009603 0.03828589 0.056766793

stae.filter_convs.1.bias f4 [32]
000000 73 c9 39 bc e1 7a 81 b9 1c 81 cc 3d a3 be 5d 3d
       -0.011339533 -0.0002469635 0.09985563 0.054136883
000010 d3 42 d8 3b 82 a7 5f bc 6f 98 3a bb 10 0f bf bb
       0.006599763 -0.013650777 -0.0028472205 -0.005830653
000020 e2 19 96 3c 91 45 91 3b 31 a4 e9 bc 03 8a b8 bb
       0.018322889 0.004433342 -0.028520675 -0.0056316867
000030 c2 0d 8b bc c0 ba 45 3a 04 dd 0c be 61 b5 dc 39
       -0.016974334 0.00075427815 -0.13756186 0.00042096808
000040 c6 a0 1f bc 9f 5d 54 3d 4a ae 3f bd 51 51 af 3c
       -0.009742921 0.051847097 -0.046797074 0.02140108
000050 7d c0 cb 3b 48 c1 c3 3c e2 ff 9e 3d e4 2b 81 3b
       0.0062180148 0.023895875 0.077636495 0.0039419997
000060 ae 21 4b bd 6c 2e 8e 3d 22 e1 10 bc 15 d3 0c 3b
       -0.049592666 0.06942448 -0.008842738 0.002148812
000070 96 3c 36 bc c9 6b fe 3b 8b d7 99 bc 6c 2f 40 3b
       -0.011122843 0.007764314 -0.018779537 0.002932514

stae.filter_convs.2.weight f4 [32, 32, 1, 2]
000000 c6 5d ce bc f7 be 26 bb 1e 21 fd 3c a2 6e ac bc
       -0.025191199 -0.0025443414 0.03089958 -0.021048848
000010 39 b3 2c bc 01 54 f3 3c a9 23 02 bc 36 a5 6b bb
       -0.010540777 0.029703142 -0.007943072 -0.0035956628
000020 a7 00 0f bb 81 1b 24 3b 99 2a d3 3c 4c db 07 3d
       -0.0021820457 0.0025040808 0.025777148 0.033168122
000030 94 49 9b 3c f5 6f 54 3d 37 fa be 3b 46 08 9b bc
       0.018955983 0.051864583 0.005828168 -0.018924844
000040 88 ec 61 3c f1 fc c1 bc 27 85 50 bc c7 b1 87 3c
       0.013789304 -0.023680182 -0.0127270585 0.016564263
000050 b8 ce a4 b8 2f 07 6d bb ee 91 4a 3c a8 8d 1e bc
       -7.858634e-05 -0.0036167612 0.012363894 -0.009677328
000060 cc 4c 17 3c d3 6f 37 3b 7b c6 c3 bc 13 45 21 3b
       0.009234618 0.0027990236 -0.023898354 0.0024607822
000070 be 3a 58 3b a3 fe 28 bc 33 79 51 3b 97 90 92 bb
       0.0032993997 -0.010314616 0.003196311 -0.004472803
000080 88 b2 94 bc a0 a5 63 bb cb 09 86 3c d6 a5 a6 bc
       -0.018151537 -0.0034736171 0.016362092 -0.020342749
000090 35 37 49 bb 93 7a b5 3b 52 62 43 bc e3 df e4 bc
       -0.0030703072 0.0055382936 -0.011925297 -0.027938789
0000a0 c6 26 ec bc 68 f6 55 3c 82 69 77 3b 46 e4 3b 3c
       -0.028827082 0.013059236 0.0037752097 0.011467999
0000b0 70 a2 a2 3c e7 e1 9d 3c 98 31 3e bb 1f e8 3f ba
       0.019852847 0.019272758 -0.002902126 -0.00073206605
0000c0 8e 61 14 3d fd 7c b6 3c 01 de ad bb 87 ce db bb
       0.036225848 0.022276396 -0.005306006 -0.0067079696
0000d0 96 af d3 3c 5c 2a a9 bc 28 7b 12 3d 5a 7e 89 3c
       0.025840562 -0.020650081 0.035761982 0.016783882
0000e0 ae b9 04 bc 39 65 69 3b 0d b4 a4 bc 85 51 0c 3d
       -0.00810091 0.0035613312 -0.020105386 0.03425743
0000f0 e0 15 0b bc 8d 7a 3f bc a4 e7 d9 3b af 4a 25 3d
       -0.008489102 -0.011686933 0.006649928 0.040354427
000100 e9 0c 6c 3d 8a ca fa bc b9 f1 ca 3c 28 34 c5 bb
       0.0576295 -0.030614156 0.024773465 -0.0060181804
000110 71 86 df bc 7b 7d a2 bc 40 4f 05 ba 82 b2 11 3c
       -0.027285786 -0.019835224 -0.00050853565 0.008892657
000120 ba 40 0f 3d 40 32 8b 3b e2 7c 92 3c 32 a2 05 3d
       0.034973837 0.0042479336 0.017881814 0.032625385
000130 75 0f 0e 3d 10 43 f7 3c 12 95 68 bc 40 c5 fb 3b
       0.03468271 0.030183345 -0.014195697 0.007683426
000140 2c f0 26 bc 9c 91 3f 3c bd 06 98 bb 02 38 76 3a
       -0.010189097 0.011692431 -0.004639475 0.0009392501
000150 78 cd 7f bb 03 f4 94 bc 51 66 5d bc 15 4d 6a 3c
       -0.003903238 -0.01818276 -0.013513164 0.014300604
000160 a5 e1 54 3b 06 40 3b 3c ce 21 eb 3c 9c 9f 46 bc
       0.0032483127 0.011428839 0.028702643 -0.012123015
000170 c3 90 cd bc f8 15 3d 3d a6 80 1b 3c ef c1 01 bc
       -0.025093442 0.04616353 0.009491121 -0.0079197725
000180 51 e5 83 bc 05 87 9d 3c 2b ba 0f 3d f0 30 08 bd
       -0.016100558 0.019229421 0.035089653 -0.033249795
000190 42 89 ef ba 0a ed 78 3b 8e 60 d4 bb 77 94 6f bc
       -0.0018275159 0.0037983083 -0.006481237 -0.014622799
0001a0 3d 8a a2 bc a1 ce 16 3d da 51 00 3d 9c 0a 49 bc
       -0.019841308 0.03681815 0.03132806 -0.012270596
0001b0 f4 7f 03 3d ff 1a 53 ba b4 1b ef ba a9 52 33 3c
       0.032104447 -0.0008053034 -0.0018242509 0.010945001
0001c0 86 ae f9 3b c4 26 0b 3b 39 cf 4b bc 82 21 8d ba
       0.007619682 0.0021232823 -0.012439542 -0.0010767432
0001d0 12 68 5e bc 6f d2 09 3c c7 42 53 3d 09 dd 6c 3c
       -0.013574617 0.008411988 0.051577356 0.014456996
0001e0 f2 cb 03 bb 9f 8c da ba e1 18 a4 3c a5 28 9f 3b
       -0.0020110575 -0.0016673988 0.020031394 0.00485714
0001f0 29 4b ac 3c 70 30 d9 bc 52 3f 8e 3b 38 44 ed 3c
       0.021031933 -0.026512355 0.0043410445 0.028963193
000200 a6 a1 e4 3c 2c ec 0a bd 31 4a 23 bb 88 bb d3 bc
       0.027909111 -0.033916637 -0.0024916048 -0.025846258
000210 c2 45 ee 3c e2 0a 7b 3d ed a6 0f 3c e9 a6 7f 3c
       0.029085997 0.061289676 0.008767826 0.015603759
000220 48 35 9f 3c f1 b2 fe 3c 77 5a d0 bc 8a 35 3d bd
       0.019434586 0.031091185 -0.025433762 -0.046193637
000230 44 41 3a 3c 85 70 01 ba c6 c2 9d bc d2 3a 0b bc
       0.0113681 -0.0004937726 -0.019257914 -0.008497911
000240 00 4e fc bb 3b 42 b3 3a 00 1f ac ba 76 56 66 3c
       -0.007699728 0.0013676354 -0.0013131797 0.0140587
000250 40 e8 ee bb 92 04 5b bc c5 c5 a7 bc a3 51 c8 3c
       -0.00729087 -0.013367789 -0.020480046 0.02445299
000260 33 3d 98 bc be df 2f bc 7e 7e d4 3c 7c ee 64 bb
       -0.01858387 -0.010734497 0.025939222 -0.0034932187
000270 6c d8 07 bc 5d 8b 8e bc 9d 5d 8b bb 6a e9 b8 bc
       -0.008291345 -0.017400438 -0.004253103 -0.022572238
000280 fc cc a0 3a 7e a9 64 3d 24 81 b0 bc 78 8b 9f 3c
       0.0012268121 0.055825703 -0.021545954 0.019475684
000290 73 79 24 3c ab 74 a8 3c 48 2d 42 3c b6 ca 4b 3d
       0.010038721 0.020563444 0.011851616 0.049753867
0002a0 06 d4 20 3d 3b 73 5b 3d 23 e7 5a bb b9 f0 7a bc
       0.0392647 0.05357669 -0.0033401928 -0.015316182
0002b0 a5 5b 4b 3c ad 23 21 bd c1 70 05 3b 94 61 b0 3b
       0.0124119865 -0.039340664 0.0020361396 0.005382726
0002c0 a6 2c 23 bd 10 53 f0 bc 73 a3 e1 3b 22 e7 88 3c
       -0.039837502 -0.029336482 0.0068859397 0.016711775
0002d0 ce 73 a2 3b ad 53 df bb bd f9 08 bd 2b fa aa bd
       0.0049576527 -0.006815395 -0.033441294 -0.08348497
0002e0 33 ef bb bc b3 75 16 3d a9 9f ab bc b1 f1 83 bc
       -0.022941208 0.03673334 -0.020950155 -0.016106458
0002f0 3c 80 30 bd 07 53 cf bc db a7 2f bb 17 a3 f1 bc
       -0.043091044 -0.025308145 -0.002680293 -0.029496713
000300 70 f8 02 bc 2c 5e 1b bd 57 b9 3c 3c 5f b8 20 bd
       -0.007993802 -0.037931606 0.011518798 -0.03923833
000310 9f d4 fc bb 29 f4 ff 3b 31 c1 38 bb 99 bf 9a 3a
       -0.007715776 0.0078110886 -0.0028191323 0.0011806368
000320 9c f6 45 3b 38 29 00 3c 9b 78 25 bc 4e 59 98 3c
       0.0030206805 0.007822327 -0.010099555 0.018597271
000330 b1 4f 21 3a 96 30 87 3c bb 89 46 bb e6 3d 55 bc
       0.00061535375 0.01650266 -0.0030294496 -0.013015246
000340 bf c6 87 ba 73 a0 1e bc b2 84 61 bb b9 ed 83 3b
       -0.0010358914 -0.009681809 -0.0034411368 0.0040261415
000350 2c 7e 17 3c ff 2a aa bc fd f0 61 bb 4b 32 ab 3c
       0.00924639 -0.020772455 -0.0034475916 0.020898005
000360 7f 3d 77 ba f8 3e b9 ba f1 f3 e0 bb 1a e5 39 3c
       -0.0009431466 -0.0014133146 -0.0068650176 0.011346126
000370 c6 ed 34 3c 69 0c 20 3d 2a 6f 3b bb 03 60 5a bc
       0.011043018 0.039074335 -0.0028600194 -0.013328555
000380 63 3c f3 bb a0 fe 88 3c 89 d9 97 bb 01 75 b6 bc
       -0.00742297 0.016722977 -0.0046340865 -0.022272589
000390 ad 8d ad bb 64 04 36 3b b7 94 bf bb c9 af e9 ba
       -0.00529643 0.0027773613 -0.0058465856 -0.0017828877
0003a0 d8 0f 9c bc 0b b0 35 3d dc 05 c6 3b 25 55 09 bd
       -0.019050524 0.04435734 0.006043179 -0.033528466
0003b0 1c 52 a0 3c 49 8a ac bc 60 2c 63 3a e2 b6 9d 3b
       0.019570403 -0.021062033 0.0008665975 0.004813061
0003c0 48 23 2a 3c 12 c9 8a 3c 77 f8 8b bb cd 85 2a 3b
       0.010384388 0.01694158 -0.0042715627 0.0026019693
0003d0 1f ac 68 3b 9c 0a a9 3c 76 ba 20 3c e2 6b bd bb
       0.0035502983 0.020634942 0.009810081 -0.005780683
0003e0 7e 56 30 bc 8c 9f 84 3c 9a ec d4 3a e3 64 2b bc
       -0.010762809 0.01618936 0.0016244829 -0.010461065
0003f0 0f 42 9e 3c b1 1f 78 bc a7 a8 e8 b9 3f b1 98 bb
       0.019318609 -0.015144275 -0.00044376144 -0.0046598013

stae.filter_convs.2.bias f4 [32]
000000 2f 53 83 3c 9a c8 0c bd 33 59 30 3c 8d d5 52 3b
       0.016030876 -0.034370996 0.010763454 0.0032170743
000010 bc e9 fa b8 fe d8 b3 3b b6 f8 77 b8 f8 e0 1f 3c
       -0.000119644654 0.005488514 -5.912102e-05 0.009758227
000020 86 ca bd 3b 7c 18 00 3c 08 7e b7 ba c3 f0 54 39
       0.005791965 0.0078183375 -0.0013999352 0.00020307586
000030 15 ed 18 3c ed a4 23 3a 9c ea b9 3b 7c 8d 34 3a
       0.0093338685 0.00062425324 0.0056737196 0.0006887538
000040 b2 85 79 bb c6 19 dc 3b 56 e0 35 3c 05 cb cf bc
       -0.0038074073 0.0067169396 0.011100849 -0.025365362
000050 57 7d fc bb 81 cb 9b 39 da 28 8d bb 1f 34 31 3c
       -0.0077053714 0.00029715526 -0.0043078484 0.010815649
000060 76 5d 11 bb 7d 6f cf bb 24 1a fd 3b dc 60 9f 3b
       -0.0022180951 -0.006330429 0.0077240635 0.0048638415
000070 a4 f9 24 bc b6 3c d7 39 f5 1f 4c 3b 75 77 ed 39
       -0.010069285 0.0004105323 0.0031146978 0.00045293165

stae.filter_convs.3.weight f4 [32, 32, 1, 2]
000000 2e 4f 3f b8 06 26 4e b9 65 60 45 3a 9b c8 ea ba
       -4.561169e-05 -0.00019659856 0.00075293175 -0.0017912568
000010 17 ca 92 b8 7f 75 09 3a d9 b5 62 3a cf 8a c3 b9
       -6.999465e-05 0.00052436435 0.0008648313 -0.0003729672
000020 40 33 03 3b e2 eb fd 39 f0 8b 5a 38 c3 fa 5a 3a
       0.002001956 0.00048431667 5.2105577e-05 0.00083534064
000030 72 7b 6c 39 9f 4b 9c 3a 31 80 00 bb 25 0f 5b 39
       0.00022552701 0.0011924392 -0.0019607658 0.0002089111
000040 52 94 69 39 ba 45 dd ba bb 79 22 3a 76 23 94 ba
       0.00022275865 -0.0016881742 0.0006197949 -0.0011302072
000050 68 71 6c ba f3 82 dc b9 20 eb d1 3a 0c 46 93 3a
       -0.00090195844 -0.00042059235 0.0016015507 0.0011236086
000060 f2 1d 76 ba 6a 3b e7 b9 fe 9b 2c 3a 89 62 34 ba
       -0.00093886175 -0.0004410402 0.0006584524 -0.0006881138
000070 0c a0 ac b8 5c ee 20 3b 59 d3 d7 38 84 ab f5 ba
       -8.23141e-05 0.0024556136 0.000102913655 -0.0018743132
000080 07 67 cb b8 a0 06 8f b9 f4 94 07 3a ec 38 f6 ba
       -9.698985e-05 -0.00027280021 0.0005172037 -0.0018785275
000090 66 90 86 b9 d9 b5 90 3a 47 66 c8 3a e1 e9 7c ba
       -0.00025666057 0.0011040523 0.001528927 -0.0009647888
0000a0 e4 1c 5c 39 81 ce 10 3a 75 24 55 36 ab fe 12 ba
       0.00020991598 0.00055239355 3.1760694e-06 -0.00056074065
0000b0 6f 8b f0 3a f0 b4 32 3a 1a 6f b9 38 4b 03 65 ba
       0.0018352101 0.0006817123 8.842182e-05 -0.00087361474
0000c0 4a 5b 03 ba d3 cc 48 ba f4 4e a0 3a 74 f9 8e 37
       -0.00050108565 -0.0007659916 0.0012230561 1.704388e-05
0000d0 1d b8 2b 3a a7 c8 49 3a 47 67 f6 3a c1 10 7a 39
       0.00065505673 0.0007697441 0.001879909 0.00023848099
0000e0 b6 15 31 b8 1b b6 17 bb d9 12 2c 3a 0c 66 31 ba
       -4.222031e-05 -0.0023149315 0.0006564088 -0.00067672203
0000f0 d0 61 f3 3a e8 3e be b9 7b 31 2b b9 c4 d4 4b ba
       0.0018568579 -0.00036286493 -0.00016326264 -0.000777554
000100 2b 03 94 bb 2a d5 b8 bb 5e dd ea 3c cb 59 50 bb
       -0.004516979 -0.0056406455 0.02867001 -0.0031791802
000110 ad 5e 0b bb ee be 67 bc 7d 9e 19 bc 64 70 49 bc
       -0.0021266148 -0.014144642 -0.009376165 -0.012294862
000120 c6 ef 39 bc c5 97 f6 bb 13 5e b3 3c 06 ed dc 3b
       -0.01134867 -0.0075254166 0.021895444 0.0067421226
000130 d2 4a d4 bb a5 a6 52 3c c1 08 74 3c c7 c5 af 3b
       -0.006478646 0.012857114 0.014894665 0.005364153
000140 69 4b c9 3c 32 d5 9c 3c f4 1b e3 ba 53 9a 00 bc
       0.024572091 0.019144628 -0.0017327056 -0.007849294
000150 8c ef d2 3a 5e 5d aa ba 0b 76 07 3b 97 24 8a 3c
       0.0016093119 -0.0012997796 0.0020669724 0.01686315
000160 1d 40 bd 3b ac 29 08 3b 15 de 91 bc 91 24 8a bb
       0.005775465 0.0020776791 -0.017806092 -0.004215785
000170 ef a4 39 3c 2c 03 ce 3c cd 27 a6 3b 95 ad ac 3a
       0.011330827 0.025147997 0.0050706626 0.001317429
000180 49 a2 56 3b a3 b2 0e bb f2 d0 9d bc cf 83 33 3c
       0.0032750538 -0.0021773956 -0.019264672 0.010956719
000190 d2 89 b9 bb 2b 74 2f 3b 8e 0f 97 bc 93 58 aa 3c
       -0.0056621814 0.0026772122 -0.018440034 0.020794189
0001a0 35 e3 02 bd 13 61 44 3c 9e ee ce 3b 74 44 94 bc
       -0.031954963 0.011986035 0.0063150665 -0.018099047
0001b0 04 b2 87 3b a9 88 0f 3c cf 02 2d 3b 67 4d 00 bb
       0.004141094 0.00876061 0.002639938 -0.0019577385
0001c0 9c d6 d8 3b 27 bd c6 3c 81 74 e3 39 3e dc 09 bc
       0.0066173803 0.024260117 0.00043383616 -0.008414326
0001d0 3a 6a 38 3c c0 4d ad 3c 6e 5d b6 ba ea 6f 25 3c
       0.011255795 0.021155238 -0.0013913342 0.010097483
0001e0 3e 40 cb bc 33 b6 e6 bb bf 0d 75 bc 01 94 3a 3b
       -0.024810906 -0.007040763 -0.014956891 0.0028469565
0001f0 24 e8 90 3b ef 36 cc ba 5f b5 3f bb 84 45 ce 3b
       0.0044222046 -0.0015580336 -0.0029252393 0.006294908
000200 03 11 48 3c 2f 50 2d 3c eb 25 f1 bc fa 8d 60 bc
       0.012211087 0.010578199 -0.029437026 -0.013705725
000210 bc e9 79 39 aa 24 74 3c 5f 6c 0d 3c d1 0c a0 3c
       0.00023833563 0.0149013195 0.008631795 0.019537361
000220 af b9 44 3c 7f b0 4d bc 2e ea b0 3c df 69 b3 bc
       0.012007161 -0.012554287 0.02159604 -0.02190107
000230 8b db 16 3c 2e 16 0f bd 73 7a 3f bc e2 2a 70 bb
       0.009207617 -0.03493326 -0.011686909 -0.0036646654
000240 ea 63 47 bc 3f f9 07 bc a9 67 94 bc 2e 1a a3 3c
       -0.012169817 -0.008299171 -0.018115835 0.019909944
000250 7d e7 0b bc 98 13 fb 3b 00 85 70 bc a6 16 f0 bb
       -0.008539078 0.007662248 -0.014680147 -0.0073269187
000260 f1 bc 69 bb 4e d2 a3 bb 42 ed 86 3c 79 02 5b 3c
       -0.0035665596 -0.0049994355 0.016470555 0.013367289
000270 c1 20 11 3c 23 8f 50 bd dc d3 94 bb b3 bb 2f bc
       0.008857907 -0.050917756 -0.004541857 -0.010725903
000280 b8 65 7a 3a f5 6b 2f 3c ba 2b 91 3c a2 81 de 3c
       0.00095519004 0.010706891 0.017721046 0.027161423
000290 19 8f 59 3c 84 38 2a 3a 40 56 7b 3c f4 3b 8c 3c
       0.013278746 0.0006493407 0.015340388 0.017118432
0002a0 15 53 d8 3c e7 88 9a 3c b0 ff 11 3c 76 6d 73 3c
       0.026406804 0.018864108 0.008911058 0.0148576405
0002b0 21 ea 53 bc 22 1d b1 bc 8c a0 be bb 4f d2 63 bb
       -0.012934239 -0.021620337 -0.0058174785 -0.0034762805
0002c0 72 5b 27 3c 4a 5f 35 bd 4c 23 56 39 1d a1 20 3c
       0.010214673 -0.044280328 0.0002042178 0.009804037
0002d0 60 b7 c0 3b 5d ad ff bc 0c fa 02 3c 67 d6 00 bd
       0.005881235 -0.031210596 0.007994186 -0.03145447
0002e0 ed 70 24 3b 31 fa 8c 3c c2 db 7c 3c bc ce 8f 3a
       0.0025091723 0.017209144 0.015433254 0.0010971646
0002f0 9f 3b c6 ba 32 c4 78 bb e3 e3 06 38 e4 4b 3d bc
       -0.001512397 -0.0037958738 3.2160326e-05 -0.011553738
000300 64 ab cc 39 41 8c ac b9 b0 c2 45 3b 9b e5 03 3a
       0.00039037608 -0.00032910894 0.0030175857 0.00050314673
000310 fb c4 bd 3a fa d1 7e ba e7 6d b4 b9 42 fe ef 39
       0.001447826 -0.000972062 -0.0003441416 0.0004577507
000320 46 2a 0b 3a 91 d4 94 ba 46 57 0f bb 51 d1 8a 3b
       0.00053087284 -0.0011354854 -0.0021872087 0.0042363782
000330 37 29 15 bb 4f 44 00 ba 38 71 b5 ba 4a 22 85 3a
       -0.0022760162 -0.0004892991 -0.0013842946 0.0010157314
000340 a0 95 e8 3a 8f e2 1b ba 61 ad 59 3a 7b 15 a2 ba
       0.0017744787 -0.00059465406 0.00083037285 -0.0012366021
000350 bb 3f 9e 3a a7 47 73 39 95 29 09 bb a5 7c 60 3a
       0.0012073437 0.00023200978 -0.0020929326 0.00085634954
000360 19 68 18 3a cc e1 71 ba 0d c3 aa b9 c2 c9 d3 3a
       0.00058138516 -0.0009227067 -0.0003257025 0.0016158151
000370 0b 8e 53 3b 2f 6a 1e bb 1f b3 bb 3a 82 aa 2a bb
       0.003228071 -0.0024172177 0.001432035 -0.0026041572
000380 d3 7f 49 3a fd fd 9f 37 fa 82 14 3a bc b7 79 bb
       0.0007686589 1.907255e-05 0.0005665269 -0.00381039
000390 72 b3 32 ba 58 4b 01 3b 1c 12 16 ba 29 f6 14 bb
       -0.00068169006 0.0019728746 -0.00057247444 -0.002272973
0003a0 ca 06 e0 ba 4e db 3c bb c8 49 c3 ba 65 e1 06 bb
       -0.0017091867 -0.002881724 -0.0014899308 -0.0020581123
0003b0 75 04 29 3b ce 0d e7 39 66 e7 97 3a 5a 61 54 ba
       0.002579001 0.0004407004 0.0011589348 -0.0008101665
0003c0 01 75 28 bb 66 a1 c3 ba f2 e2 f9 b9 d2 03 0e 3a
       -0.0025704505 -0.001492542 -0.00047662068 0.00054174394
0003d0 d6 0f fb ba 45 00 14 3b 97 a8 88 ba a0 fb 88 3a
       -0.00191545 0.0022583168 -0.001042622 0.0010450967
0003e0 c6 37 35 3b cf 09 9c bb 26 0d f6 b9 3b 89 e4 39
       0.0027651652 -0.0047619115 -0.00046930573 0.00043589793
0003f0 93 2c 49 3a bd f0 99 ba cf 51 2b 3a 8e 6e 03 bb
       0.00076741836 -0.0011744719 0.0006535323 -0.002005491

stae.filter_convs.3.bias f4 [32]
000000 5e d2 95 ba 11 c6 c0 bb 62 9f 89 3c 48 a0 50 b9
       -0.0011430492 -0.0058829864 0.016799632 -0.00019896135
000010 1e 85 1a bc 38 73 a7 ba 8b 62 97 ba 6b ee 75 3b
       -0.009431152 -0.0012775427 -0.0011549754 0.0037526141
000020 d6 95 25 39 0a 21 6f bb 2e 1d 8a 3c 21 8a 2d 3c
       0.00015791444 -0.0036488199 0.016859617 0.0105920145
000030 d6 48 54 bb 92 45 9e 3a 1d 3c a8 ba 59 44 f1 ba
       -0.0032392046 0.0012075177 -0.0012835298 -0.001840721
000040 bc 9a 6e bc f8 d7 99 3a ba 2f b5 b9 d3 d9 9c ba
       -0.014563259 0.0011737337 -0.0003455857 -0.0011966772
000050 32 e8 a5 bc 60 1a 05 3b 4d ab 31 ba 83 ab e5 bb
       -0.02025232 0.002030991 -0.000677754 -0.007008971
000060 05 81 7e bb b7 45 4e 38 f8 c4 f9 38 a1 cc 6d 3b
       -0.0038834226 4.9179154e-05 0.000119099335 0.0036285298
000070 44 14 87 3b cb 65 3e ba bb e7 47 bb d5 84 ae b9
       0.004122289 -0.0007263093 -0.0030503112 -0.00033286834

stae.filter_convs.4.weight f4 [32, 32, 1, 2]
000000 ca 50 8d b9 ac 38 c0 39 7d 74 eb 3a 6c c0 b2 ba
       -0.00026953808 0.00036663318 0.0017963793 -0.0013637668
000010 ad 4e 81 39 31 00 d1 ba 92 53 db b9 fb 09 e6 ba
       0.00024663415 -0.0015945492 -0.000418332 -0.0017550582
000020 d3 f0 b0 ba df 16 50 38 76 c8 95 39 83 bf 13 3b
       -0.0013499506 4.9612365e-05 0.0002856885 0.002254457
000030 7f 6d 1d ba 5c 3d 28 b9 ac ed c3 ba 66 48 88 ba
       -0.0006005391 -0.00016044587 -0.0014948151 -0.0010397553
000040 95 26 09 b9 85 1c 99 b9 83 46 78 b9 04 e0 bd ba
       -0.00013079711 -0.00029203683 -0.0002367739 -0.0014486318
000050 f4 16 81 3a c6 ae d2 3a 7b 35 c0 3a f3 93 7b 3a
       0.000984876 0.0016073815 0.0014664376 0.0009596936
000060 cd 9b ec ba 53 a1 9d ba 46 81 4c ba 35 12 3d 39
       -0.0018051803 -0.0012026228 -0.00078012457 0.00018031227
000070 18 b7 2a 3a 42 1a 94 3b 2e 61 15 39 53 cb df 3a
       0.00065122684 0.0045197317 0.0001424595 0.0017074145
000080 64 be 01 b9 d5 70 54 39 eb 74 7f ba 54 05 0e bb
       -0.00012373325 0.00020259929 -0.00097449 -0.0021670656
000090 32 12 2e ba d6 c0 d6 38 18 38 1f ba 42 d7 92 39
       -0.00066402846 0.00010240234 -0.0006073727 0.0002800767
0000a0 71 24 21 3a 69 72 98 3a da 68 32 3a 5a f0 04 ba
       0.0006147093 0.0011630777 0.0006805785 -0.00050712156
0000b0 01 ea a1 39 f5 fa dc 3a 23 de b0 ba 31 28 7b ba
       0.0003088266 0.0016859459 -0.0013493936 -0.0009580879
0000c0 2c be 85 3a bd 87 1a 3b 91 6b 96 ba 8f ef 19 bb
       0.001020377 0.0023579441 -0.0011476149 -0.0023488735
0000d0 39 62 a8 3a 5a ef 59 3a d3 8b c3 b7 e9 fb 1d 39
       0.0012846655 0.0008313559 -2.3310922e-05 0.0001506653
0000e0 9b 6e 72 ba 4c ac 8c 3a aa b8 e3 39 39 1a 0d 3a
       -0.0009248049 0.0010732501 0.000434344 0.00053826306
0000f0 a4 0b 98 3a 20 b8 54 b9 e2 1a 6c b7 d5 06 de 3a
       0.0011600149 -0.00020286487 -1.4072955e-05 0.0016939292
000100 59 fc 96 bc 7f 86 89 bc 98 42 e5 3b 0e 27 1b bc
       -0.018430876 -0.016787766 0.006996464 -0.009469761
000110 17 15 d7 bb ed f6 30 3b 3d 14 49 bb 06 61 ee ba
       -0.0065637934 0.0027002648 -0.003068223 -0.0018186874
000120 41 2b 49 bb 47 0e ae 3a 0d 14 b6 3b 4d 38 31 bb
       -0.0030695947 0.0013279401 0.0055565895 -0.0027041615
000130 de dc 23 ba f7 3b 33 3a cd f9 6a 3a cf 65 ac 3a
       -0.00062508683 0.00068372436 0.0008963615 0.00131529
000140 52 82 b5 3a ef 4a 37 3b cb 4b 9c ba da 92 3c 3c
       0.0013848043 0.0027968248 -0.0011924444 0.0115096215
000150 46 47 0d bc 22 56 73 bc 6c a5 77 3b b2 ba 49 bb
       -0.00862295 -0.014852079 0.0037787808 -0.0030781445
000160 eb a8 52 bb ea db 91 3b d8 2a b6 bb 1a 8d 81 3a
       -0.003214414 0.0044512646 -0.0055593066 0.000988397
000170 3e c9 14 3c 04 1f 5a 3c d3 3d 85 3b 62 33 9c 3b
       0.009081183 0.013313059 0.004066208 0.0047668675
000180 1a 32 67 3a 4e 54 a7 ba 2c d1 46 bc 06 7b a9 bb
       0.00088194164 -0.0012766214 -0.012134831 -0.0051721362
000190 6a fb f0 bb 5d 12 2a bc 81 1c 6a bc 15 f1 f9 3b
       -0.0073541896 -0.010380355 -0.014289022 0.007627616
0001a0 f0 c1 f9 ba 1e 71 8e ba 3b 65 30 bb e6 06 b3 b8
       -0.001905499 -0.0010867452 -0.0026915807 -8.53667e-05
0001b0 19 a5 9b 38 77 5f 01 bb 8e 83 09 3b f3 3c 16 3c
       7.421728e-05 -0.001974074 0.0020982954 0.009169805
0001c0 d6 a0 b1 3b b4 a6 7e 3b 20 d2 a8 ba 1f 86 2f ba
       0.0054207845 0.0038856687 -0.0012880005 -0.0006695706
0001d0 25 6d ae 3b fc 3e a9 3b 71 0a 83 37 5b 05 c7 b6
       0.0053230696 0.005164979 1.5621279e-05 -5.9312856e-06
0001e0 61 2d 18 bc 6b e2 4e 3c f3 31 3a bb ad 9f d6 bb
       -0.009288163 0.012627224 -0.002841112 -0.0065497966
0001f0 c8 9d 96 3b ff 53 45 3c c6 ab 82 bb 0d d1 ce 3b
       0.0045964457 0.012043952 -0.003987762 0.006311542
000200 f8 f3 38 39 29 ca 57 ba 74 42 b4 3a 8d b1 22 3a
       0.00017638493 -0.00082317233 0.0013752715 0.00062062667
000210 1e e1 c7 39 b1 75 0e bb 02 34 3c 39 27 f5 80 ba
       0.00038123963 -0.002173763 0.00017948452 -0.0009838686
000220 ec 99 01 ba 74 fe e3 b8 be b2 3e b7 6a 5a de 3a
       -0.00049438956 -0.00010871599 -1.1366499e-05 0.0016964201
000230 5b 84 a1 b8 32 e9 fc 38 0a fc c2 39 1a 48 f3 b9
       -7.7017314e-05 0.000120597324 0.00037190347 -0.00046402292
000240 6c 18 22 39 21 ce 6c 3a 38 ee 05 b8 32 8e 8f ba
       0.00015458622 0.0009033401 -3.193153e-05 -0.0010952412
000250 61 c3 d6 3a 74 ec dc 3a d4 de b0 3a 4c bd 85 39
       0.0016385132 0.0016855136 0.0013494142 0.00025508774
000260 17 0b 78 ba 68 5f e0 ba 70 60 c6 39 cf 64 04 39
       -0.0009462102 -0.0017118277 0.00037837354 0.00012626055
000270 28 93 20 b9 44 ad 37 3b b5 72 13 b9 a8 92 25 3a
       -0.00015313609 0.0028026858 -0.00014061744 0.0006316104
000280 15 8c db 39 0f e1 a2 b9 46 0e 16 b8 09 ca 1d bb
       0.00041875304 -0.0003106673 -3.577608e-05 -0.0024076721
000290 d5 cf d0 3a 2a 69 43 3a 4f e5 b4 3a 63 0b 88 ba
       0.0015931079 0.00074543303 0.001380125 -0.001037937
0002a0 c4 b5 f6 39 45 0b cc 39 4d 9a 06 ba f9 d1 ab b9
       0.00047056202 0.0003891831 -0.0005134687 -0.00032772103
0002b0 ae 41 04 3a 81 b8 91 3a d1 6f 0e ba 15 ed fd ba
       0.00050451874 0.0011117609 -0.0005433532 -0.0019373024
0002c0 48 f2 af 39 7a 27 33 3b 20 9c 7b 38 55 4e 6a ba
       0.00033559115 0.0027336762 5.9988466e-05 -0.0008938064
0002d0 6f e1 9d 3a af bc 89 3a 20 6d 6c 37 bb 26 83 38
       0.0012045334 0.0010508503 1.4092104e-05 6.253781e-05
0002e0 f9 d9 de b9 9d fe 15 3a 67 09 0b 3a 60 c6 6d 3a
       -0.00042505542 0.0005721839 0.000530383 0.00090703927
0002f0 ac a9 b8 38 96 28 b5 ba 14 8d 63 ba a1 8c 09 b8
       8.8054076e-05 -0.00138213 -0.0008680385 -3.2794316e-05
000300 ef 6f ce bc ff 11 47 bd 7b a3 70 3c cf 98 6b bc
       -0.025199858 -0.048601147 0.014687414 -0.014379694
000310 47 44 48 bc ea e2 bb bb 1d a7 1a bc 94 be d6 ba
       -0.01222331 -0.0057338374 -0.009439257 -0.0016383701
000320 7a 73 16 bc 07 1c d7 3b b9 b8 c5 3b 4e bf 70 bc
       -0.009182805 0.0065646204 0.0060339835 -0.014694048
000330 46 1b 16 bc 2b cc 36 3c 59 ea c9 3b 34 f8 24 bc
       -0.009161776 0.011157076 0.0061619696 -0.010068942
000340 b5 9a d7 3b e7 fb 8a 3c f5 25 3d bc 4b 7e e3 bb
       0.006579722 0.01696582 -0.011544694 -0.0069425455
000350 75 a3 40 bb 9c 98 02 bd 27 bd 3f 3c 8c 8c 5b bc
       -0.0029394303 -0.03188382 0.011702812 -0.013400208
000360 15 40 b6 bb 5f d0 6f 3c cc 55 39 bc ff 9a 24 bc
       -0.0055618384 0.014637082 -0.0113119595 -0.01004672
000370 29 a7 87 3c ae db e4 3c a2 05 41 3c a1 6d 3d bb
       0.0165592 0.027936783 0.011781128 -0.0028904455
000380 5d 0a 44 3b a5 85 07 bc f5 5b 97 bc 0d 80 bf bc
       0.0029913404 -0.008271609 -0.018476466 -0.023376489
000390 1a 10 da bb 15 c0 25 bd 1f c4 db bc 49 b2 59 3c
       -0.0066547515 -0.040466387 -0.026826916 0.013287135
0003a0 a0 91 57 3a 40 4d fa bb c6 9b 7b bc dd 0b 45 3c
       0.0008223299 -0.0076386034 -0.0153569635 0.012026754
0003b0 69 2d 16 3b 55 cb 0a bb 61 5d f5 39 f9 b0 d7 3c
       0.002291525 -0.0021178324 0.00046799614 0.026329504
0003c0 65 96 77 3c ba c9 18 3c 99 40 5f bb b3 63 f8 bb
       0.01511154 0.009325439 -0.0034065603 -0.0075802444
0003d0 c3 e7 29 3c 54 ec 8d 3c 4f 1b 3d b9 1c b5 fc b9
       0.010370198 0.017324604 -0.00018034618 -0.00048200123
0003e0 ec 0c 64 bc d5 86 9b 3c 39 03 e1 3b dd 7e aa bc
       -0.013919096 0.018985191 0.0068668392 -0.020812446
0003f0 62 7c 3e bb c2 b1 31 3d 04 af 6f bc 57 1d d4 3c
       -0.0029065837 0.043382414 -0.014629129 0.025892897

stae.filter_convs.4.bias f4 [32]
000000 b8 ee 85 3a 7f 52 d9 3a a7 e2 9f 3a 87 18 ff bb
       0.0010218238 0.0016580372 0.0012198285 -0.0077849063
000010 48 e9 87 3b 89 0c d2 ba da 5c 0a ba fc 9f 12 ba
       0.0041476823 -0.0016025464 -0.0005278118 -0.00055932975
000020 af 41 50 3a d2 15 0b bb 0b 2b 15 bb 21 e4 1d bc
       0.0007944358 -0.0021222723 -0.0022761251 -0.00963691
000030 6e 99 c0 b9 0f 7f 53 3d 3e 14 09 3b 82 e9 0e ba
       -0.00036735408 0.051634844 0.0020916606 -0.00054516655
000040 87 3a 1c 3a 14 86 15 3c bf b3 e2 3b c3 ba 40 bc
       0.0005959649 0.009126205 0.0069184 -0.011763277
000050 b8 42 1d 3c 9c f1 59 bb e7 cf ea ba 66 1b 9d bb
       0.0095984265 -0.0033255583 -0.0017914743 -0.004794526
000060 5b ca f6 3a 3c 54 0e 3a 6c db c3 bb 4b ff 47 3b
       0.0018828617 0.0005429422 -0.005977085 0.0030517157
000070 6f d6 a9 39 e2 6f c1 bb 66 b8 b2 ba a9 74 85 3a
       0.00032393957 -0.00590323 -0.0013635277 0.0010181862
