Diagnose/diagnose_utils/mgahgm_util/checkpoints/model.pt (torch, 476048 bytes, 55 tensors)

enc_feat_mask_token f4 [1, 100]
0	0xbc958513	-0.018251931
1	0x3e099842	0.13436988
2	0xbc4c0e63	-0.012454602
3	0xbd221932	-0.03957481
4	0xbed6ea99	-0.4197586
5	0xbd6d2753	-0.05789883
6	0x3c63a885	0.013895159
7	0xbed59ddf	-0.4172201
8	0xbecf6e3e	-0.40513796
9	0xbe02c612	-0.1277087
10	0xbe74df01	-0.23913194
11	0x3dc7a589	0.0974837
12	0xbd802c87	-0.06258493
13	0xbe01d6f2	-0.12679651
14	0xbe1e21b2	-0.15442541
15	0x3e3f6148	0.18689454
16	0xbe06beee	-0.13158771
17	0x3c866f72	0.016410563
18	0xbd9a7fb7	-0.07543891
19	0xbcaa5a68	-0.020795062
20	0xbe395df9	-0.18102254
21	0xbe045beb	-0.12925689
22	0xbdfc3f79	-0.12316794
23	0xbb75861f	-0.0037463976
24	0xba07b536	-0.0005176844
25	0x3dc6e9bf	0.09712552
26	0xbeb19e04	-0.3469087
27	0xbddbe7c0	-0.10737562
28	0xbe61fd8b	-0.22069375
29	0xbe32d576	-0.17464241
30	0xbda94b65	-0.082663335
31	0xbe411eea	-0.18859449
32	0xbde5c659	-0.112194724
33	0xbdb7e625	-0.089794435
34	0xbe7555bc	-0.23958486
35	0x3e73abca	0.23796001
36	0xbe234442	-0.15944007
37	0x3dd54ce7	0.104150586
38	0x3c9310aa	0.017952282
39	0xbe5c7020	-0.21527147
40	0xbdef208e	-0.11676131
41	0xbd8764e9	-0.06611044
42	0xbd223491	-0.039600912
43	0x3dea074c	0.11427173
44	0xbc9e5aa1	-0.019330325
45	0x3dd1b90b	0.10240372
46	0x3d4c1317	0.049822893
47	0x3d029693	0.03188188
48	0xbe8b5bee	-0.27218574
49	0xba4eab65	-0.0007883816
50	0xbe3adcfe	-0.18248364
51	0xbe1a5de1	-0.15074874
52	0x3e1bac8b	0.15202539
53	0x3de9f0bf	0.11422872
54	0xbdecff8b	-0.115721785
55	0xbd296b5d	-0.041362155
56	0xbd8a22d2	-0.06744923
57	0xbe95f4be	-0.29288286
58	0xbd029c23	-0.031887185
59	0x3dc4f2e3	0.096166395
60	0x3d6f8ecf	0.058485802
61	0xbba8593d	-0.005137591
62	0xbc185014	-0.009296436
63	0xbe489333	-0.19587402
64	0xbe1c52d2	-0.15265968
65	0xbe429d02	-0.19005206
66	0xbc866fa4	-0.016410656
67	0xbc8c1e5f	-0.017104326
68	0xbd8f9385	-0.07010559
69	0x3df5bde4	0.119991094
70	0x3e4c054d	0.19923897
71	0xbe579562	-0.21053079
72	0xbe0f5ee3	-0.1400104
73	0xbe135179	-0.14386548
74	0xbe82e395	-0.25564256
75	0xbb9fd852	-0.0048780823
76	0xbdb02eb7	-0.0860266
77	0x3e06a04a	0.13147083
78	0xbd7e966c	-0.062155172
79	0xbdeb28db	-0.11482402
80	0x3ddf2bb7	0.1089701
81	0xbe1ae457	-0.15126167
82	0xbdd8a456	-0.105782196
83	0xbd8a4eb2	-0.06753291
84	0xbe1e2142	-0.15442374
85	0x3e761094	0.24029762
86	0xbdee0228	-0.11621505
87	0x3ccd8033	0.025085544
88	0xbc8273bc	-0.015924327
89	0x3da71400	0.081581116
90	0x3d41b50a	0.047291793
91	0xbe48653d	-0.1956987
92	0xbdbfb2ca	-0.09360273
93	0xbe65838f	-0.22413467
94	0x3c8710b0	0.01648745
95	0xbd9f1603	-0.0776787
96	0xbd8aded6	-0.06780784
97	0xbdfd5fff	-0.123718254
98	0x3dee4779	0.11634726
99	0xbe13a3bb	-0.14417927

enc_time_mask_token f4 [1, 51]
0	0x00000000	0.0
1	0x00000000	0.0
2	0x00000000	0.0
3	0x00000000	0.0
4	0x00000000	0.0
5	0x00000000	0.0
6	0x00000000	0.0
7	0x00000000	0.0
8	0x00000000	0.0
9	0x00000000	0.0
10	0x00000000	0.0
11	0x00000000	0.0
12	0x00000000	0.0
13	0x00000000	0.0
14	0x00000000	0.0
15	0x00000000	0.0
16	0x00000000	0.0
17	0x00000000	0.0
18	0x00000000	0.0
19	0x00000000	0.0
20	0x00000000	0.0
21	0x00000000	0.0
22	0x00000000	0.0
23	0x00000000	0.0
24	0x00000000	0.0
25	0x00000000	0.0
26	0x00000000	0.0
27	0x00000000	0.0
28	0x00000000	0.0
29	0x00000000	0.0
30	0x00000000	0.0
31	0x00000000	0.0
32	0x00000000	0.0
33	0x00000000	0.0
34	0x00000000	0.0
35	0x00000000	0.0
36	0x00000000	0.0
37	0x00000000	0.0
38	0x00000000	0.0
39	0x00000000	0.0
40	0x00000000	0.0
41	0x00000000	0.0
42	0x00000000	0.0
43	0x00000000	0.0
44	0x00000000	0.0
45	0x00000000	0.0
46	0x00000000	0.0
47	0x00000000	0.0
48	0x00000000	0.0
49	0x00000000	0.0
50	0x00000000	0.0

feature_gat.gnn.att_i f4 [1, 1, 100]
0	0xbdff65f9	-0.124706216
1	0xbef1ce76	-0.4722783
2	0x3e02ca1c	0.12772411
3	0x3dfdc24e	0.12390576
4	0xbc40bea2	-0.0117642
5	0x3bc80124	0.0061036516
6	0x3e4edd58	0.20201623
7	0xbe90c0be	-0.2827205
8	0xbd5f99b4	-0.054589942
9	0xbe07033b	-0.13184826
10	0x3e28d8a3	0.1648889
11	0x3c255620	0.010091335
12	0x3da2569e	0.07926677
13	0x3de4bd5e	0.111689314
14	0x3db80229	0.08984787
15	0x3e0ac60a	0.13552108
16	0x3e080412	0.13282803
17	0x3e453064	0.19256741
18	0x3e210251	0.1572354
19	0x3bd14bd1	0.006387212
20	0x3e2637ac	0.16232175
21	0xbc0ed44c	-0.008717608
22	0x3e4bd900	0.19906998
23	0x3d999885	0.07499794
24	0x3e25e1a0	0.1619935
25	0x3e151333	0.14558105
26	0x3defa89e	0.11702083
27	0x3de6c830	0.112686515
28	0x3e909894	0.28241408
29	0x3e71900d	0.23590107
30	0x3d5277ad	0.051383663
31	0xbdfa14c2	-0.122109905
32	0x3dd1942a	0.10233338
33	0x3db2e383	0.08734801
34	0x3e383a85	0.17991073
35	0x3e7bf713	0.2460597
36	0x3e87e605	0.26542678
37	0x3d6a0bd4	0.057140186
38	0x3e4618ba	0.1934537
39	0xbcd206fe	-0.0256381
40	0x3dc4cc3d	0.09609268
41	0x3e874564	0.26420128
42	0xbd59c4c2	-0.05316616
43	0x3dc9a4b1	0.098458655
44	0x3e43cfb3	0.191222
45	0x3e20aec4	0.15691668
46	0x3dc76cb2	0.09737529
47	0x3d815335	0.063146986
48	0x3e0148c6	0.12625417
49	0x3e620e34	0.2207573
50	0x3e441ae2	0.1915088
51	0x3e9a5eea	0.3015054
52	0x3e4f9dc8	0.20275033
53	0x3df260b5	0.11834852
54	0x3dd1977f	0.10233974
55	0xbe9a1ca3	-0.30099973
56	0x3ddd9ac9	0.108205386
57	0xbda87521	-0.082254656
58	0xbecab499	-0.3959091
59	0x3d92a64d	0.071606256
60	0xbe116795	-0.1419967
61	0x3c2a079b	0.01037779
62	0x3d85d0e6	0.06533985
63	0x3e3bee7c	0.18352693
64	0x3e67afc5	0.22625645
65	0x3e5994e4	0.21248204
66	0x3d00512c	0.03132741
67	0x3e25bbb5	0.16184886
68	0x3e440a4c	0.19144553
69	0x3e1ee7be	0.1551809
70	0x3df7e429	0.12104065
71	0x3d4c22d5	0.049837906
72	0x3e2d6d34	0.16936189
73	0x3e1fba37	0.15598379
74	0x3e4d96d3	0.20077066
75	0x3cb73cf6	0.022367936
76	0x3de26c9d	0.110558726
77	0x3e571a68	0.21006167
78	0x3e0e999e	0.13925788
79	0x3e02be73	0.12767963
80	0x3db3877d	0.08766077
81	0x3e12910b	0.14313142
82	0x3ac0ea58	0.0014718277
83	0x3ea06cc5	0.31332985
84	0x3e59f2f1	0.21284081
85	0x3e35dcf4	0.17760068
86	0x3e88ad6f	0.2669482
87	0x3e542f47	0.2072116
88	0x3e6e4f4b	0.23272435
89	0x3dd37646	0.10325293
90	0xbe47aa1b	-0.19498484
91	0x3e6f9575	0.23396857
92	0x3e326c23	0.17424063
93	0x3de599c8	0.11210972
94	0x3dc0fe22	0.09423472
95	0x3c998fe9	0.01874538
96	0x3e80a72c	0.25127542
97	0x3e5b79b6	0.21433148
98	0x3da4dcdf	0.0804994
99	0x3e0d8316	0.13819537

feature_gat.gnn.att_j f4 [1, 1, 100]
0	0x3b80c55e	0.003929778
1	0xbeb16cc5	-0.34653297
2	0x3e2a4675	0.1662844
3	0xbd35b92f	-0.044366058
4	0x3c28d788	0.010305293
5	0x3c69c797	0.014268777
6	0x3e0e1ee6	0.13878974
7	0xbd36d601	-0.044637684
8	0xbd6db9db	-0.058038574
9	0xbcb91a5c	-0.022595577
10	0xbddeed00	-0.10885048
11	0x3c13c10a	0.009018192
12	0xbb7069f6	-0.0036684251
13	0xbca1a60a	-0.019732494
14	0x3bf09a1e	0.007342591
15	0x3c9d9a55	0.01923863
16	0x3c8419b5	0.01612554
17	0x3c048d30	0.008090302
18	0xbd1df058	-0.038559288
19	0x3ccb0a74	0.024785258
20	0x3c7b6996	0.015344998
21	0x3c806ea6	0.015677761
22	0x3ded03fc	0.115730256
23	0xbe214276	-0.15748009
24	0x3cf78f21	0.030219616
25	0x3c34a385	0.011025314
26	0x3dfe219f	0.124087565
27	0x3d1c282e	0.038124256
28	0x3e546313	0.20740919
29	0x3d9b67f1	0.075881846
30	0xbbb4c54b	-0.005516683
31	0xbdf2e195	-0.118594326
32	0x3d2fa6c0	0.042883635
33	0x3ba511b1	0.0050375094
34	0x3c7cf84a	0.015440056
35	0xbc6eca82	-0.014574649
36	0xb937582d	-0.00017485088
37	0xbd3523d2	-0.044223614
38	0x3d12a60f	0.035802897
39	0xbd685cd7	-0.056729164
40	0xbc5ae4ee	-0.013360245
41	0x3be8bc84	0.007102551
42	0x3c9935d6	0.018702429
43	0x3d2adc9b	0.041714292
44	0x3b94dbe9	0.004542817
45	0xbcb5bb0b	-0.022183916
46	0xbb854b68	-0.004067827
47	0x3c7d7daf	0.01547186
48	0x3cc913eb	0.02454563
49	0xbe07d8fb	-0.13266365
50	0xbbb50000	-0.0055236816
51	0x3e245ae0	0.16050291
52	0x3d6d3afd	0.057917584
53	0xbdefc063	-0.11706617
54	0xba8371f7	-0.0010028471
55	0xbe2d9193	-0.16950063
56	0x3d57d3b0	0.052692115
57	0x3c3a5ba3	0.011374387
58	0xbdc278d0	-0.094956994
59	0xbc8873f5	-0.016656855
60	0xbd138146	-0.036011957
61	0xbd36d13a	-0.044633128
62	0x3d6355d7	0.055501785
63	0xbddf9c63	-0.109185
64	0x3e015de4	0.12633473
65	0xbe315610	-0.17317986
66	0x3c3870bb	0.011257346
67	0x3cddd234	0.027077772
68	0x3c89f3e3	0.016839927
69	0x3cf8000f	0.030273465
70	0x3c52ae92	0.012859004
71	0xbd9c04eb	-0.076181255
72	0xbd24432a	-0.040103115
73	0x3a05a5ea	0.00050982705
74	0x3dfaa2e9	0.12238104
75	0xbc07ecaf	-0.008296176
76	0xbaa1cbcf	-0.0012344065
77	0x3d105ac0	0.035242796
78	0xbda7247e	-0.08161257
79	0x3d2044e0	0.039128184
80	0x3d84e712	0.06489386
81	0x3ddec657	0.10877674
82	0xbcb1bde7	-0.021696998
83	0xbd396903	-0.045266163
84	0xbb84cae6	-0.0040525077
85	0x3d24d854	0.04024537
86	0x3dfae8b8	0.12251419
87	0x3d82db8c	0.063895315
88	0xbc42aed1	-0.0118825
89	0xbcbc2edf	-0.022971569
90	0xbcbf280c	-0.023334526
91	0x3d7dda62	0.061975844
92	0x3d17d91e	0.037072293
93	0xbc0bcfe3	-0.008533451
94	0x3d3d4d17	0.046216097
95	0xbce5b3d3	-0.028039848
96	0x3d281521	0.041035775
97	0x3e1a9056	0.15094122
98	0xbdbb9896	-0.09159963
99	0xbdbcc84a	-0.092178896

feature_gat.gnn.att_em_i f4 [1, 1, 100]
0	0x3e22990c	0.15878695
1	0x3c875004	0.016517647
2	0x3e1aa2b6	0.15101132
3	0xbca4a848	-0.020099774
4	0x3eaab5e5	0.333419
5	0x3dcddcd7	0.100518875
6	0xbdcc4b67	-0.09975319
7	0x3e14788d	0.14499111
8	0xbe179ab0	-0.14805102
9	0x3e90b15c	0.28260314
10	0xbe78bc93	-0.24290685
11	0xbe2a3949	-0.16623415
12	0x3d8a6664	0.06757811
13	0xbd06a7c5	-0.03287484
14	0x3dfa1162	0.12210347
15	0xbe3f9222	-0.18708089
16	0xbc7271df	-0.014797657
17	0xbcd8ac40	-0.026449323
18	0x3e0e28e3	0.13882785
19	0x3dafb8d7	0.08580177
20	0xbe5e9f4b	-0.21740453
21	0x3d98e7a7	0.07466059
22	0x3dafee6d	0.08590398
23	0xbe55c15c	-0.20874542
24	0xbc7e6677	-0.015527359
25	0xbc1fad35	-0.009745886
26	0x3d7a759b	0.061147314
27	0xbe1ed9a9	-0.15512718
28	0xbddd170c	-0.107954115
29	0xbd9f2069	-0.077698536
30	0xbd73e9e7	-0.05954924
31	0x3d361d9e	0.04446184
32	0x3dce1649	0.10062844
33	0x3df04eec	0.11733803
34	0x3de23b68	0.11046487
35	0xbedf1e09	-0.43577603
36	0xbdc825d1	-0.09772838
37	0x3e397fc9	0.18115152
38	0xbed2ccfd	-0.4117202
39	0xbdd3b74d	-0.10337696
40	0x3cb9fb0b	0.022702714
41	0x3e623598	0.22090757
42	0xbd95e4cd	-0.07319031
43	0xbd033cc6	-0.03204038
44	0x3b3c26b0	0.0028709583
45	0xbe0913c3	-0.13386445
46	0xbe53d5a6	-0.20686969
47	0xbda529e7	-0.08064633
48	0xbde2b053	-0.110687874
49	0xbdcce061	-0.100037344
50	0xbe4e4dc4	-0.20146853
51	0x3e2f6be9	0.17131008
52	0xbdc1fcb2	-0.09472026
53	0xbd71b0ae	-0.059006386
54	0xbd35500d	-0.044265795
55	0xbdfb5262	-0.12271573
56	0xbd3d225e	-0.046175353
57	0x3dd686c7	0.104749255
58	0x3dec4d94	0.11538234
59	0x3e75e682	0.24013713
60	0xbedb2b1a	-0.4280632
61	0xbe2963fa	-0.16542044
62	0xbe4ab4d8	-0.19795549
63	0x3e23326f	0.15937208
64	0x3c65ef72	0.014034139
65	0x3d8805c1	0.066417225
66	0x3b803424	0.0039124656
67	0x3de804e1	0.113290556
68	0xbe52c4c8	-0.20582879
69	0x3dd65eee	0.10467325
70	0xbe0d209d	-0.13781972
71	0xbd4bf0ea	-0.0497903
72	0xbe476f71	-0.19476105
73	0xbe2a7343	-0.16645531
74	0x3e6790de	0.22613856
75	0xbe7e1c23	-0.24815421
76	0xbd0050a3	-0.0313269
77	0x3d86abba	0.06575723
78	0xbe2f63b1	-0.17127873
79	0xbe2210ca	-0.15826717
80	0x3e1f2082	0.15539744
81	0x3de96dca	0.11397894
82	0x3e93f3e0	0.28897
83	0xbe242bc7	-0.16032325
84	0x3c7f8fcb	0.015598248
85	0x3e67d6a9	0.2264048
86	0xbdfebf57	-0.12438839
87	0x3e7d4a32	0.24735335
88	0x3dac511a	0.084139064
89	0xbe05122b	-0.12995212
90	0xbe106e45	-0.14104564
91	0x3d3618dd	0.044457305
92	0xbe21c38f	-0.15797256
93	0xbe6a34e2	-0.22871736
94	0xbdf2c9f1	-0.118549235
95	0xbe9208e6	-0.28522414
96	0x3db68d01	0.08913613
97	0x3db176a5	0.08665208
98	0xbe768e94	-0.24077827
99	0x3e9f29c0	0.3108654

feature_gat.gnn.att_em_j f4 [1, 1, 100]
0	0x3d3711c1	0.044694666
1	0xbe2e0094	-0.16992408
2	0x3d3c097e	0.04590749
3	0xbdc380a1	-0.095460184
4	0x3dd1cbc7	0.102439456
5	0x3e15172c	0.1455962
6	0xbdd95de8	-0.10613614
7	0xbdcaf95c	-0.09910843
8	0xbe110b40	-0.14164448
9	0xbd13ed66	-0.036115073
10	0xbdb67aff	-0.089101784
11	0xbd1be3ec	-0.03805916
12	0xbd065196	-0.03279265
13	0xbe1727a6	-0.14761218
14	0xbd1c1fd3	-0.038116287
15	0x3d9b275c	0.075758666
16	0xbd89fc9a	-0.06737633
17	0xbde631f6	-0.11239998
18	0x3c51e7c8	0.012811609
19	0x3dbbb79d	0.09165881
20	0xbe2c2ff5	-0.16815169
21	0x3d86079f	0.06544422
22	0xbda2a046	-0.07940726
23	0xbe229d82	-0.15880397
24	0xbda587f8	-0.080825746
25	0x3de6d00c	0.112701505
26	0x3d07e3c8	0.033176214
27	0xbc8c277c	-0.017108671
28	0x3d8a3898	0.06749076
29	0xbc720527	-0.014771736
30	0x3dc01417	0.09378832
31	0xbd8e79b3	-0.06956806
32	0x3e7b2c7f	0.24528693
33	0x3d234fe6	0.03987112
34	0x3d9f4caf	0.07778298
35	0xbe0e23b2	-0.13880804
36	0xbdf1c992	-0.118060246
37	0x3cd7082e	0.026249018
38	0xbd05406a	-0.032532133
39	0x3ca316a6	0.01990826
40	0xbe0b350a	-0.13594452
41	0xbc86a85a	-0.016437698
42	0x3d7811f5	0.060564
43	0xbde808de	-0.11329816
44	0xbd585dae	-0.052823715
45	0xbe0fbef5	-0.14037688
46	0xbe5ee868	-0.21768343
47	0x3d6352b1	0.055498783
48	0xbe2b1734	-0.1670807
49	0xbc4c9816	-0.012487432
50	0x3c8919fa	0.01673602
51	0x3dca7f1e	0.09887527
52	0xbddd8381	-0.10816098
53	0xbd0583df	-0.032596465
54	0x3c9cb562	0.019129459
55	0xbd4c04fe	-0.04980945
56	0xbdb9bbcf	-0.09069025
57	0xbb6313b4	-0.0034649195
58	0x3c65f2fb	0.014034982
59	0x3da2e0cb	0.07953032
60	0xbdf4407e	-0.119263634
61	0xbdba6cb8	-0.09102768
62	0xbe10d112	-0.14142254
63	0x3dbfebc7	0.09371143
64	0xbd929373	-0.0715703
65	0x3d8ca526	0.06867437
66	0x3d43e6ae	0.047827415
67	0x3cedffaa	0.029052574
68	0xbdec5cfa	-0.11541171
69	0x3b14af20	0.002268739
70	0xbe0a0463	-0.13478236
71	0xbe01c7ef	-0.12673925
72	0xbe7f7b82	-0.24949458
73	0xbe4b7c53	-0.19871645
74	0x3e1162a4	0.14197785
75	0xbd061353	-0.032733273
76	0x3d821dd7	0.06353348
77	0x3bf7ab19	0.007558238
78	0xbd4c0172	-0.049806066
79	0xbd7d6433	-0.061863136
80	0x3d789206	0.060686134
81	0x3e178e54	0.14800388
82	0x3dfe10fb	0.124055825
83	0x3bf3bfa0	0.007438615
84	0x3e064b77	0.13114725
85	0x3e312221	0.17298175
86	0x3bc2beef	0.005943171
87	0x3e021d6a	0.12706533
88	0x3dddeed4	0.108365685
89	0x3c5d7ddd	0.013518778
90	0xbd8c7d2d	-0.06859813
91	0xbdea5110	-0.11441243
92	0x3c340cbd	0.010989365
93	0x3cbb1ec2	0.022841815
94	0xbd7f42b7	-0.062319484
95	0x3d5cb88c	0.053886935
96	0x3e61231a	0.21986046
97	0xbdc6ddb2	-0.09710254
98	0x3e051bcc	0.12998885
99	0x3e6bec1c	0.23039287

feature_gat.gnn.bias f4 [100]
0	0xb55ce945	-8.229584e-07
1	0xb4ef965a	-4.4626614e-07
2	0x35925193	1.0901589e-06
3	0xb505a8de	-4.9792095e-07
4	0x3527750d	6.238268e-07
5	0xb56560e8	-8.5450165e-07
6	0x35804564	9.556938e-07
7	0xb549c79b	-7.51688e-07
8	0x340176ba	1.2057254e-07
9	0xb4e8f6f7	-4.3393058e-07
10	0xb5a0d071	-1.1981593e-06
11	0xb5ce1125	-1.5353186e-06
12	0x361599d9	2.2292281e-06
13	0x3524d634	6.140647e-07
14	0x3561b715	8.408545e-07
15	0xb66c626e	-3.5224034e-06
16	0x35523234	7.830415e-07
17	0xb563893e	-8.4763803e-07
18	0xb32ad8d9	-3.977843e-08
19	0x356fd474	8.93436e-07
20	0xb58b8635	-1.0395366e-06
21	0xb54d45ae	-7.646985e-07
22	0x357828f4	9.2446794e-07
23	0xb44a09de	-1.8816306e-07
24	0xb5ed56a8	-1.7683096e-06
25	0x35c6e532	1.4818854e-06
26	0x355effc2	8.307362e-07
27	0x35928a47	1.0918092e-06
28	0x34f48f01	4.555259e-07
29	0xb4c0cf1e	-3.5913484e-07
30	0x35d5228f	1.5879795e-06
31	0xb56b7aae	-8.7722844e-07
32	0x34d0b111	3.8871852e-07
33	0x352be9ce	6.4042695e-07
34	0x35ea4222	1.7453606e-06
35	0xb2f07b82	-2.7995842e-08
36	0x35e443c4	1.7007046e-06
37	0x352c06d4	6.408493e-07
38	0x35ee6a59	1.7763333e-06
39	0xb55d1d74	-8.2371776e-07
40	0x3595acd4	1.1151665e-06
41	0xb49e4d76	-2.9486154e-07
42	0x3425f5a0	1.545618e-07
43	0xb5432df4	-7.271003e-07
44	0x357c2c34	9.394164e-07
45	0xb4d26bd4	-3.9194003e-07
46	0x35e06fad	1.6721802e-06
47	0xb5d8caf6	-1.6152323e-06
48	0x35f9e3e1	1.8618267e-06
49	0xb6476102	-2.9709777e-06
50	0xb56e0953	-8.867548e-07
51	0x3583f839	9.832503e-07
52	0x35bbb1b1	1.3984301e-06
53	0xb6038986	-1.960057e-06
54	0xb5a04e0f	-1.1943647e-06
55	0xb55ce32e	-8.2286977e-07
56	0x35c37dd1	1.456525e-06
57	0xb56d3dff	-8.8379596e-07
58	0xb5a84e39	-1.2539741e-06
59	0x3598570f	1.135022e-06
60	0x3510c9ff	5.3938123e-07
61	0xb6655fe3	-3.4179473e-06
62	0x359c12b7	1.1628352e-06
63	0xb53326f6	-6.673939e-07
64	0x3543825f	7.2832876e-07
65	0xb5c90bd8	-1.4979114e-06
66	0xb5a6b460	-1.242046e-06
67	0x341d0c57	1.4626254e-07
68	0xb487e070	-2.530901e-07
69	0x35f0f5bd	1.7952913e-06
70	0x3601b61e	1.9328504e-06
71	0xb5b4b9d9	-1.3465134e-06
72	0x351eee09	5.9205973e-07
73	0xb5a19281	-1.2038073e-06
74	0x3570f64c	8.9765376e-07
75	0xb5a89316	-1.2559783e-06
76	0x350fd9e9	5.358875e-07
77	0x3603df78	1.9650597e-06
78	0xb579e8c8	-9.309847e-07
79	0x359655a7	1.1200799e-06
80	0x35e175d3	1.6798098e-06
81	0xb5589847	-8.0687863e-07
82	0x34c58361	3.67897e-07
83	0xb67b6fd4	-3.7467007e-06
84	0xb5ba5b9a	-1.388474e-06
85	0x35877e4e	1.0095043e-06
86	0x357f35fe	9.507347e-07
87	0x35bae811	1.392562e-06
88	0x35727d00	9.0333924e-07
89	0xb5be47a0	-1.4176949e-06
90	0xb51c8c09	-5.8318307e-07
91	0x35b9c46d	1.3840742e-06
92	0x35cbdfbd	1.5189795e-06
93	0x359532b5	1.1116123e-06
94	0x3635847f	2.7048225e-06
95	0x35fbdfab	1.8766053e-06
96	0x359d0e6e	1.1701611e-06
97	0x35362ec8	6.786836e-07
98	0xb592bd29	-1.09329e-06
99	0xb56fa6bc	-8.927707e-07

feature_gat.gnn.lin.weight f4 [100, 100]
0	0x3cb32843	0.021869784
1	0xbd15cb01	-0.036570553
2	0xbc68eb03	-0.014216187
3	0xbbdc9185	-0.0067312145
4	0x3d76dbb8	0.060268134
5	0x3b78c86f	0.0037961265
6	0xbcae553b	-0.021280875
7	0x3d9c6a53	0.07637467
8	0x3d5e758f	0.05431133
9	0x3d2e4abc	0.04255174
10	0x3d01be26	0.03167548
11	0xb917560d	-0.00014432539
12	0x3ceed703	0.02915526
13	0xbaf0d555	-0.0018374125
14	0x3d36dfcf	0.044647034
15	0xbd022649	-0.031774793
16	0x3ca2562d	0.019816482
17	0xbc95e8ef	-0.018299548
18	0xbbd1e46e	-0.006405405
19	0x3ce07896	0.02740125
20	0x3c8e2315	0.017350713
21	0x3c801a8a	0.015637655
22	0x3d1b622c	0.03793542
23	0x3d0aa4bc	0.03384851
24	0xbcbc6f55	-0.023002306
25	0xbbcecb08	-0.0063108243
26	0x3d43fe91	0.047850195
27	0x3d208fe6	0.039199732
28	0x3c61e7e5	0.013788198
29	0x3c3e7c66	0.011626339
30	0xbb8ba8cf	-0.004262067
31	0x3cd0a8bb	0.025471082
32	0x3ca2ef02	0.019889358
33	0x3c39a78d	0.011331451
34	0x3cc0ebf4	0.023550011
35	0xbd28b038	-0.04118368
36	0x3c15171a	0.009099746
37	0xbc64ea3a	-0.01397186
38	0x3c082ce8	0.008311488
39	0x3d215642	0.039388902
40	0x3cf9c33b	0.030488601
41	0xbc351e89	-0.011054643
42	0x3bf90e72	0.007600599
43	0xbc405c73	-0.011740792
44	0x3d257a11	0.040399615
45	0x3c762948	0.015024491
46	0xbca49204	-0.020089157
47	0xbc622c56	-0.013804516
48	0x3c42c882	0.011888625
49	0xbb9ccce4	-0.004785167
50	0xbb0c8bd7	-0.0021445656
51	0x3d0f4907	0.034981754
52	0xbcce005c	-0.025146656
53	0xbcc38753	-0.023868239
54	0x3c981feb	0.018569907
55	0x3b1c6971	0.002386656
56	0x3d08f966	0.03344097
57	0x3d6a7157	0.057236996
58	0xbca38102	-0.019958977
59	0x3c10c559	0.008836114
60	0xba4ee25d	-0.0007892007
61	0x3c9f5c7e	0.019453283
62	0xbbf37071	-0.0074291755
63	0x3cb19900	0.021679401
64	0x3c9eca51	0.019383581
65	0x3d1c6fb3	0.038192462
66	0x3c9d203e	0.019180413
67	0x3c91e7fd	0.017810816
68	0x3c958cdf	0.01825565
69	0xbcfc5528	-0.030802324
70	0xbd05a1ba	-0.032624938
71	0x3c0b05c6	0.008485263
72	0xbbfc6259	-0.0077021536
73	0x3d40d537	0.047078338
74	0x3c87aaf4	0.016561009
75	0xbca449df	-0.020054756
76	0xba389f41	-0.00070427737
77	0x3c2b827d	0.010468123
78	0xbbf08b3d	-0.0073408172
79	0xbbfdb1f4	-0.007742161
80	0xbcce1598	-0.025156781
81	0x3ce07e54	0.027403988
82	0x3c77a073	0.015113938
83	0xbc84a9cb	-0.016194245
84	0x39340ff7	0.00017172085
85	0xbd2eea0e	-0.04270368
86	0x3cc4b277	0.02401088
87	0x3c6c7d64	0.014434192
88	0x3c4f04f8	0.012635462
89	0xbc7381c0	-0.014862478
90	0xbc912b47	-0.017720832
91	0x3d0eb70b	0.034842532
92	0x3b8dfa90	0.004332848
93	0x3c97f770	0.018550605
94	0xbc1b4c60	-0.009478658
95	0x3c8673d1	0.016412647
96	0x3ca79bc8	0.020460024
97	0x3d272a35	0.040811736
98	0x3c964583	0.018343693
99	0x3c81d9ee	0.015850987
100	0x3d25043e	0.04028725
101	0xbc93ebfd	-0.018056864
102	0xbc1c7440	-0.009549201
103	0x3d76a0b2	0.060211845
104	0x3df607cc	0.12013206
105	0xba14b227	-0.0005672299
106	0x3d711727	0.05885997
107	0x3e14e52f	0.14540552
108	0x3e06af98	0.13152921
109	0x3d78f740	0.06078267
110	0x3d898f49	0.067167826
111	0x3c98306b	0.018577775
112	0x3cd1b8e0	0.02560085
113	0x3d96267a	0.073315576
114	0x3d86f15a	0.06589003
115	0xbd22378a	-0.039603747
116	0x3d644cda	0.055737354
117	0xbbef5336	-0.0073036207
118	0x3da50246	0.08057074
119	0x3d482228	0.0488607
120	0x3db76558	0.08954877
121	0x3d965d22	0.073419824
122	0x3cc071cf	0.023491768
123	0xbc3d3dc3	-0.01155037
124	0x3ca3ed2f	0.020010559
125	0x3c88c66b	0.016696176
126	0x3de6f3b6	0.11276953
127	0x3c54e0b3	0.012993026
128	0x3d30639d	0.04306375
129	0xba5561e5	-0.00081398926
130	0x3cbbd035	0.02292643
131	0x3daf4c0c	0.08559427
132	0x3d6016f5	0.054709394
133	0x3dadd0f4	0.0848712
134	0x3c30c535	0.010789205
135	0xbd550f13	-0.05201633
136	0x3d692d09	0.056927714
137	0x3ce51fdd	0.027969295
138	0xbcfea6d6	-0.031085413
139	0x3d7cb469	0.06169549
140	0x3d1509bc	0.036386237
141	0x3cb411d5	0.02198116
142	0x3d2e3545	0.04253127
143	0xbce8e7ec	-0.028430901
144	0x3cc9a286	0.02461363
145	0xbd129f91	-0.035796706
146	0x3d3224a0	0.04349196
147	0xbcb5af2d	-0.022178257
148	0x3dbc3055	0.09188906
149	0xbb83859d	-0.0040137307
150	0x3d1981fe	0.037477486
151	0x3d992a23	0.0747874
152	0xbd188d66	-0.037244223
153	0xbd908851	-0.0705725
154	0x3d261f78	0.040557355
155	0x3c6ac0bc	0.014328178
156	0x3d2cc725	0.042182107
157	0x3d93e876	0.07222073
158	0x3d00459b	0.03131638
159	0xbc3377b4	-0.010953832
160	0xbb68c3fe	-0.003551721
161	0xbd0211eb	-0.03175537
162	0xbc9c21d6	-0.019059103
163	0x3d752888	0.059853107
164	0x3d0487b8	0.032355994
165	0x3d8d417e	0.06897257
166	0x3c01178e	0.007879151
167	0xbc5bfb03	-0.013426545
168	0x3d6ea8db	0.058266502
169	0xbcbe0824	-0.023197241
170	0xbd39e834	-0.04538746
171	0x3daeac84	0.085289985
172	0x3d87b445	0.066261806
173	0x3d80da21	0.06291605
174	0x3da1f150	0.07907355
175	0xbcf03afe	-0.029325005
176	0x3d276f94	0.040877894
177	0xbc05c69a	-0.008165026
178	0x3d24fc58	0.040279716
179	0x3d7782b4	0.060427383
180	0xbbf32a2e	-0.0074207997
181	0x3d8d7e27	0.06908827
182	0x3d2a3589	0.04155496
183	0x3d4659a7	0.048425343
184	0x3d276194	0.040864542
185	0xbd624be9	-0.055248175
186	0xbaea08ab	-0.0017855366
187	0xbc436867	-0.011926747
188	0x3d01697d	0.031594742
189	0xbcae219a	-0.021256257
190	0xbb32ec9b	-0.0027301672
191	0x3d8054d6	0.06266181
192	0xbb9b2eb7	-0.0047357935
193	0x3d47347f	0.04863405
194	0x3b816757	0.0039490866
195	0x3d24b5c2	0.0402124
196	0x3d846b91	0.06465829
197	0x3d9095f4	0.07059851
198	0xbcdd07e3	-0.0269813
199	0x3dd35b53	0.10320153
200	0x3d196366	0.03744831
201	0x3ae7707c	0.0017657424
202	0x3d0de42d	0.034641434
203	0xbb9a25b6	-0.0047042025
204	0xbe019f63	-0.12658457
205	0xbcd44044	-0.02590955
206	0xbd70fad1	-0.058832947
207	0xbd9766da	-0.07392664
208	0xbd695845	-0.056968946
209	0xbdb827bc	-0.08991954
210	0xbd9e7e1e	-0.07738899
211	0xb9a9da19	-0.00032396687
212	0x3ca518c7	0.020153416
213	0xbd85ede1	-0.065395124
214	0xbd2bf714	-0.04198368
215	0x3caa9567	0.020823194
216	0xbd6f7fd6	-0.058471523
217	0xbd01a163	-0.03164805
218	0xbd2af3b4	-0.04173632
219	0xbcf8ea4e	-0.030385163
220	0xbd82f699	-0.06394691
221	0xbd05d033	-0.032669257
222	0xbd133c86	-0.03594639
223	0xbd15cd57	-0.03657278
224	0x3cbff1e1	0.023430767
225	0x3d4b0291	0.049562994
226	0xbda7ceb3	-0.081937216
227	0xbd08694e	-0.03330355
228	0xbdd1bf1c	-0.10241529
229	0xbda05bac	-0.07829985
230	0xbcee83d3	-0.029115593
231	0xbd512ba2	-0.051067002
232	0xbc4737c2	-0.01215929
233	0xbd4e3e99	-0.050352667
234	0xbd78251e	-0.060582273
235	0x3d446cf3	0.047955465
236	0x3c823074	0.015892245
237	0x3d4dac96	0.05021342
238	0xbd23ad85	-0.039960403
239	0xbd63d764	-0.055625334
240	0xbd28d66f	-0.041220125
241	0xbca4328f	-0.02004364
242	0x3ad2fdd4	0.0016097375
243	0xbc2afa6a	-0.01043568
244	0xbcf13f64	-0.029449172
245	0xbd24fe5d	-0.040281642
246	0xbcaf044f	-0.02136436
247	0xbd615dc6	-0.05502107
248	0xbd322c69	-0.043499384
249	0xbd414b33	-0.047190856
250	0xbd8bb389	-0.06821353
251	0xbda7d861	-0.08195568
252	0x3d80ab2d	0.06282649
253	0x3b79c54f	0.003811199
254	0x3c6fea31	0.014643238
255	0xbd45ee33	-0.048322868

feature_gat.bn.weight f4 [100]
0	0xbede5d64	-0.43430626
1	0xbed75b73	-0.42061958
2	0x3ef09838	0.46991134
3	0xbdb9fd38	-0.09081501
4	0x3ed4cf09	0.41564205
5	0xbe70619a	-0.23474732
6	0x3ed5ce55	0.4175898
7	0xbedba7f9	-0.4290159
8	0x3ebcc98d	0.3687252
9	0xbed3c34f	-0.41359946
10	0xbe011700	-0.1260643
11	0xbe6a005b	-0.22851698
12	0x3ed19d4b	0.40940318
13	0xbe4a0f00	-0.19732285
14	0x3edfc869	0.43707588
15	0x3e8097ad	0.2511572
16	0x3ee5e220	0.44899082
17	0xbde1f429	-0.11032898
18	0xbe1971fa	-0.14984885
19	0x3ee2375b	0.44182858
20	0xbe30298c	-0.17203349
21	0xbe93d7ab	-0.2887548
22	0x3ee7a675	0.45244184
23	0xbe261c59	-0.16221751
24	0x3ea80772	0.3281818
25	0x3eeb17c6	0.45916575
26	0x3ed8b3a9	0.4232457
27	0x3ee3e97e	0.44514078
28	0x3edb92bd	0.4288539
29	0x3ecebdc1	0.40379146
30	0x3ed4a68e	0.4153332
31	0xbee58610	-0.44828844
32	0x3ece79ce	0.40327305
33	0x3ee4cdfe	0.4468841
34	0x3ee7871a	0.45220262
35	0xbd5b82e8	-0.05359164
36	0x3edf0719	0.43560103
37	0x3ec11c37	0.3771684
38	0x3eed9ba9	0.46407822
39	0xbee12073	-0.4397007
40	0x3edf4248	0.43605256
41	0x3ec91dc7	0.3928053
42	0xbed4ca1d	-0.4156045
43	0xbe4f03cc	-0.20216292
44	0x3ee988ef	0.45612285
45	0xbdb7f253	-0.089817666
46	0x3ed79867	0.4210846
47	0xbe287555	-0.16451009
48	0x3eecf466	0.4628021
49	0xbdb1a746	-0.08674483
50	0xbde1106c	-0.1098946
51	0x3ed31712	0.4122854
52	0x3ee43dc7	0.44578382
53	0xbe1b33e9	-0.15156521
54	0xbe4f7b55	-0.20261891
55	0xbed790f2	-0.42102772
56	0x3eda6603	0.42655954
57	0xbedf3215	-0.43592897
58	0xbedb3079	-0.4281042
59	0x3eddde86	0.43333834
60	0x3df16301	0.117864616
61	0x3ebb1e31	0.36546472
62	0x3eebd321	0.46059516
63	0xbe15c1e2	-0.14624742
64	0x3ee6a0d2	0.4504457
65	0xbdd31b75	-0.103079714
66	0xbe4cd632	-0.20003584
67	0x3e948936	0.29010934
68	0x3b685c63	0.0035455457
69	0x3ee2ea7d	0.44319525
70	0x3edeeb80	0.43539047
71	0xbd8e7de7	-0.06957608
72	0x3ea47b4e	0.32125324
73	0xbdcb1c64	-0.099175245
74	0x3edd2020	0.43188572
75	0xbe6d37ba	-0.23165789
76	0x3ec67df5	0.38767973
77	0x3eeba035	0.46020666
78	0xbe25bd90	-0.16185594
79	0x3ee102a3	0.43947324
80	0x3ee2105d	0.4415311
81	0x3ed156c4	0.4088651
82	0x3eac961c	0.33708274
83	0x3c895bf8	0.016767487
84	0x3e920926	0.28522605
85	0x3edfbf71	0.43700746
86	0x3edab426	0.42715567
87	0x3ecdc7fe	0.40191644
88	0x3edc25c0	0.4299755
89	0xbe077f3a	-0.13232127
90	0xbed8e3da	-0.42361337
91	0x3ed7e5c4	0.42167485
92	0x3ed2bb44	0.41158497
93	0x3ee0fe33	0.4394394
94	0x3edc3ef9	0.43016794
95	0x3ed144c7	0.40872785
96	0x3edbb46d	0.4291109
97	0x3ee58959	0.4483135
98	0xbe24bece	-0.16088411
99	0xbe0f711a	-0.14007989

feature_gat.bn.bias f4 [100]
0	0xc083571d	-4.104384
1	0xc0839ca4	-4.112871
2	0xc083e6e9	-4.1219373
3	0xc088031f	-4.250381
4	0xc0832c26	-4.099139
5	0xc08572ef	-4.17028
6	0xc0837ed8	-4.109234
7	0xc0843c5b	-4.1323676
8	0xc0834cba	-4.103116
9	0xc08401f2	-4.1252375
10	0xc08744f7	-4.2271686
11	0xc085d0dc	-4.1817455
12	0xc08390a7	-4.1114078
13	0xc0869b9f	-4.2064967
14	0xc083a116	-4.113414
15	0xc0854b0f	-4.1654124
16	0xc083c6db	-4.1180243
17	0xc0873f3f	-4.2264705
18	0xc086faf9	-4.2181363
19	0xc082d826	-4.0888853
20	0xc08728b1	-4.223717
21	0xc086037b	-4.187925
22	0xc0833697	-4.100414
23	0xc087295d	-4.223799
24	0xc08490e4	-4.142687
25	0xc082e744	-4.0907307
26	0xc0838e33	-4.1111083
27	0xc0837e30	-4.1091537
28	0xc083363d	-4.100371
29	0xc083c059	-4.11723
30	0xc0835302	-4.103883
31	0xc0834781	-4.1024785
32	0xc0831cf7	-4.0972857
33	0xc082d0e3	-4.087999
34	0xc0827cc2	-4.077729
35	0xc0876a28	-4.2317085
36	0xc083aa83	-4.1145644
37	0xc083fc19	-4.1245236
38	0xc0834b31	-4.1029286
39	0xc082ebb2	-4.0912714
40	0xc082cf89	-4.087834
41	0xc0840860	-4.1260223
42	0xc083434c	-4.101965
43	0xc086cba1	-4.212357
44	0xc0829da5	-4.0817437
45	0xc087bd57	-4.241863
46	0xc082f8d0	-4.0928726
47	0xc087549a	-4.2290773
48	0xc0831fd1	-4.097634
49	0xc08851c9	-4.2599835
50	0xc087cbb1	-4.2436147
51	0xc083c580	-4.117859
52	0xc083010f	-4.093879
53	0xc0870946	-4.219882
54	0xc086a8eb	-4.20812
55	0xc083d1cf	-4.1193614
56	0xc082a3ed	-4.0825105
57	0xc083442d	-4.1020722
58	0xc0832848	-4.098667
59	0xc0831824	-4.096697
60	0xc0876e25	-4.2321954
61	0xc0845132	-4.1349115
62	0xc0822f7c	-4.0682964
63	0xc0872cd9	-4.2242246
64	0xc0835e32	-4.1052485
65	0xc08800a4	-4.250078
66	0xc086ba36	-4.210231
67	0xc085a6bd	-4.176604
68	0xc088d6cc	-4.2762203
69	0xc083bc0c	-4.116705
70	0xc082cf5e	-4.0878134
71	0xc0874095	-4.2266335
72	0xc0841194	-4.127146
73	0xc087c78d	-4.243109
74	0xc0820df6	-4.064204
75	0xc08679e6	-4.20238
76	0xc0845f9d	-4.1366715
77	0xc0832bf7	-4.099117
78	0xc0870982	-4.2199106
79	0xc08289a0	-4.0793
80	0xc0828881	-4.079163
81	0xc083e785	-4.1220117
82	0xc0846252	-4.137002
83	0xc087cf2d	-4.24404
84	0xc08515fe	-4.1589346
85	0xc08305b8	-4.094448
86	0xc083bcaf	-4.1167827
87	0xc083387a	-4.100644
88	0xc082b31f	-4.0843654
89	0xc08781ca	-4.2345934
90	0xc083865b	-4.110151
91	0xc0830975	-4.0949044
92	0xc0837e03	-4.1091323
93	0xc08349d8	-4.102764
94	0xc0832605	-4.098391
95	0xc0834721	-4.1024327
96	0xc083cb0a	-4.118535
97	0xc0829a94	-4.0813694
98	0xc08724bb	-4.2232337
99	0xc087b1e5	-4.2404656

feature_gat.bn.running_mean f4 [100]
0	0xbe2aec0e	-0.1669161
1	0xbeabb54a	-0.3353675
2	0x3e5f3359	0.21796931
3	0x3e4b336e	0.19843838
4	0x3df2c51c	0.11854002
5	0xbd9eeb66	-0.077597424
6	0x3e592c29	0.21208252
7	0xbe58307c	-0.21112245
8	0x3e8c651c	0.2742089
9	0xbe22b811	-0.15890528
10	0x3e45c8ce	0.19314882
11	0xbda37849	-0.07981927
12	0x3e09f931	0.13473965
13	0x3dcf2fb4	0.101165205
14	0x3e0cbb88	0.13743412
15	0x3e180179	0.14844312
16	0x3e480ecc	0.19536895
17	0x3e1a5e83	0.15075116
18	0x3e25575b	0.16146605
19	0x3de6ca47	0.1126905
20	0x3dc7e897	0.0976116
21	0xbde8847c	-0.113533944
22	0x3e5ce9e8	0.21573603
23	0x3e2a1ac2	0.1661177
24	0x3e1407e5	0.14456137
25	0x3e39f7bd	0.18160911
26	0x3e4ed202	0.20197299
27	0x3e468c29	0.19389404
28	0x3e85369e	0.26018232
29	0x3e5f2f1b	0.21795313
30	0x3e04cf1b	0.1296963
31	0xbe540643	-0.20705514
32	0x3e0e8ec2	0.13921645
33	0x3e1e0ba5	0.1543413
34	0x3e210104	0.15723044
35	0x3e7d46e9	0.24734081
36	0x3e47501a	0.1946415
37	0x3e002430	0.12513804
38	0x3e5fa7b2	0.21841314
39	0xbe0bf25d	-0.13666673
40	0x3e2196cc	0.1578018
41	0x3e5a17f9	0.21298207
42	0xbe05cf94	-0.13067466
43	0x3d30e468	0.043186575
44	0x3e48ebbf	0.1962118
45	0x3e264a8d	0.16239376
46	0x3e37dbf8	0.17955005
47	0x3d0733d8	0.033008426
48	0x3e1f7979	0.15573682
49	0x3e915db5	0.28391805
50	0x3e10a7ab	0.1412646
51	0x3e7f819e	0.24951789
52	0x3e5599dc	0.20859474
53	0x3e307a2c	0.17234105
54	0x3c055fba	0.008140499
55	0xbe814613	-0.25248775
56	0x3e08e906	0.13370141
57	0xbe1c0a00	-0.1523819
58	0xbe6cdaa5	-0.23130281
59	0x3e174acf	0.14774631
60	0xbdd7e2bb	-0.10541292
61	0x3e4932ca	0.1964828
62	0x3e2f1bc6	0.17100438
63	0x3e4554d6	0.19270644
64	0x3e6ff2f9	0.2343253
65	0x3e9869ec	0.29768312
66	0xbd43a2bb	-0.047762614
67	0x3e12838d	0.14307995
68	0x3e5f73de	0.21821544
69	0x3e15b191	0.14618517
70	0x3e496675	0.1966799
71	0x3deedd6d	0.11663327
72	0x3e246bad	0.160567
73	0x3e168bf2	0.14701822
74	0x3e66ff16	0.22558245
75	0xbcb37d62	-0.021910373
76	0x3e26ce9a	0.1628975
77	0x3e1e590d	0.15463658
78	0x3e023dd1	0.12718894
79	0x3e077e0c	0.13231677
80	0x3e0debde	0.13859507
81	0x3e4ff760	0.2030921
82	0x3dec5602	0.11539842
83	0x3ed41c55	0.41427866
84	0x3e4fca8b	0.20292108
85	0x3e1bbc98	0.15208662
86	0x3e815ef0	0.25267744
87	0x3e57a919	0.210606
88	0x3e4ad46f	0.198076
89	0x3df0904a	0.11746271
90	0xbe4b04fc	-0.1982612
91	0x3e203484	0.15645033
92	0x3e37a5b7	0.17934309
93	0x3e369904	0.17831808
94	0x3e288936	0.16458592
95	0x3e33861b	0.17531626
96	0x3e35d99e	0.17758796
97	0x3e753d3e	0.23949143
98	0x3dfedafe	0.12444113
99	0x3df773fe	0.12082671

feature_gat.bn.running_var f4 [100]
0	0x3c070f9a	0.008243466
1	0x3d7f2f6b	0.06230108
2	0x3d3c61e9	0.045991812
3	0x3ca29faf	0.019851534
4	0x3b7694b0	0.0037625246
5	0x3c5b7828	0.013395347
6	0x3d86dcbe	0.06585072
7	0x3defa5ee	0.117015705
8	0x3c9481aa	0.018128235
9	0x3d247efd	0.040160168
10	0x3cc7bcaa	0.024381954
11	0x3c3a788d	0.011381281
12	0x3bd5f96d	0.006529978
13	0x3cf1b9ac	0.02950748
14	0x3bdaa42b	0.0066724024
15	0x3c1ea442	0.009682717
16	0x3cc7a4bc	0.024370544
17	0x3c6945c1	0.014237822
18	0x3ce4f0fc	0.027946942
19	0x3b8a0a31	0.0042126407
20	0x3ccac0df	0.024750171
21	0x3c776223	0.015099081
22	0x3c94d704	0.018168934
23	0x3d1a840b	0.037723582
24	0x3c18308b	0.009288917
25	0x3c34176a	0.0109919105
26	0x3d3943b1	0.04523057
27	0x3d0ba582	0.034093387
28	0x3dcd3eae	0.10021721
29	0x3d5e5f8a	0.054290332
30	0x3b8f7b7c	0.004378734
31	0x3c9e2677	0.01930545
32	0x3bc510e8	0.0060139783
33	0x3bd7e8c2	0.006589026
34	0x3bebe07a	0.0071983906
35	0x3c3b9643	0.011449399
36	0x3d1b48ae	0.03791111
37	0x3bac920d	0.005266434
38	0x3d126001	0.035736088
39	0x3ba35905	0.004984977
40	0x3c126ce4	0.008937094
41	0x3c893a57	0.016751451
42	0x3b8dce8d	0.0043276013
43	0x3ce68e8c	0.028144144
44	0x3c648e50	0.013949946
45	0x3c3f2e98	0.011668824
46	0x3c4d47ba	0.012529308
47	0x3c7f0547	0.015565223
48	0x3bf20915	0.0073863366
49	0x3cd402fa	0.025880326
50	0x3c8c9fbc	0.017166011
51	0x3dafcef8	0.08584398
52	0x3d1d4f5c	0.03840576
53	0x3cfe76cc	0.031062506
54	0x3c927427	0.017877651
55	0x3dbad9dd	0.091235854
56	0x3ba41dfb	0.0050084568
57	0x3be5e324	0.0070156027
58	0x3cc9647c	0.024584047
59	0x3bf14eed	0.007364145
60	0x3c6183bf	0.013764321
61	0x3c34a79c	0.011026289
62	0x3c07f50e	0.008298172
63	0x3cf474d5	0.029840866
64	0x3d7b58d8	0.061364025
65	0x3d0c6483	0.034275543
66	0x3c9e516a	0.01932593
67	0x3bbe907b	0.0058155633
68	0x3b251985	0.0025192213
69	0x3bf15b8e	0.0073656505
70	0x3c8d14d9	0.017221855
71	0x3be7d851	0.0070753475
72	0x3c0fb01f	0.008770018
73	0x3c454108	0.01203943
74	0x3cb54156	0.022125881
75	0x3c8d106d	0.017219746
76	0x3cc468c1	0.023975732
77	0x3bdea5c1	0.0067946617
78	0x3ce47937	0.027889831
79	0x3babdc3d	0.0052447603
80	0x3bc13356	0.0058960123
81	0x3d6bd638	0.05757734
82	0x3b886bb6	0.004163231
83	0x3c169b48	0.009192295
84	0x3c56c2c9	0.013107964
85	0x3be7daa5	0.007075625
86	0x3d6b09f9	0.057382558
87	0x3caf8a3c	0.02142822
88	0x3d1cf553	0.038319897
89	0x3c9ac755	0.018893877
90	0x3d539b8b	0.05166201
91	0x3c1c089e	0.009523539
92	0x3ca57eb5	0.02020202
93	0x3d010d84	0.03150703
94	0x3c0016ac	0.007817905
95	0x3c1bb853	0.009504396
96	0x3c1d467d	0.009599325
97	0x3d49e8a1	0.049294118
98	0x3d0db49d	0.034596074
99	0x3ca2b2a4	0.019860573

temporal_gat.a f4 [102, 1]
0	0x39e92bf9	0.00044473985
1	0x3a94ca73	0.0011351838
2	0xb8b1298d	-8.447757e-05
3	0xba832bd7	-0.0010007572
4	0x3ac15056	0.0014748673
5	0x3a199823	0.0005859157
6	0x3a04cebf	0.0005066208
7	0x3aad2834	0.0013210834
8	0xb9d79159	-0.00041116288
9	0xb8a571bb	-7.888997e-05
10	0x39a27d64	0.0003099247
11	0x3a993a36	0.0011690322
12	0x3a312850	0.0006758021
13	0xb93e0589	-0.00018121874
14	0x3a9799bc	0.0011566202
15	0x38403d6c	4.583357e-05
16	0xba286e39	-0.0006425116
17	0x385628c1	5.105953e-05
18	0x3ac3fe1b	0.0014953049
19	0xbab2a6e1	-0.0013630056
20	0x3aab9250	0.0013089869
21	0xba969bb8	-0.00114905
22	0xba714f0b	-0.0009205199
23	0xbaac34ab	-0.0013138255
24	0x3a80a5e9	0.000981507
25	0x39808494	0.0002451284
26	0xba823480	-0.0009933859
27	0xba0f578e	-0.0005468064
28	0x3a84d0bf	0.0010133012
29	0x3abe53f7	0.0014520873
30	0x388379c2	6.269246e-05
31	0x39c842be	0.000381967
32	0xba0a8141	-0.00052835426
33	0x3a1a3945	0.00058831676
34	0x39d78257	0.00041105106
35	0xbaab5069	-0.0013070229
36	0x3ab577a6	0.0013844862
37	0x3a91ff78	0.0011138758
38	0x3a9cdf09	0.0011968325
39	0x3954e0ee	0.00020301688
40	0xb9afa794	-0.00033503457
41	0x3a91f4d5	0.0011135588
42	0xba8b4845	-0.0010626396
43	0xbaaac9cc	-0.0013030111
44	0x38c03197	9.16451e-05
45	0x39fd4249	0.00048305307
46	0x39ab9f02	0.00032734132
47	0x3911e77f	0.00013914517
48	0x39ad8499	0.00033095924
49	0xb9589f2d	-0.00020658663
50	0xba667f25	-0.000879275
51	0xbab10a7a	-0.001350715
52	0xb9a1744d	-0.00030794964
53	0x3a301444	0.0006716887
54	0xba2d1640	-0.0006602742
55	0xba2c23d6	-0.0006566619
56	0xb98d35c4	-0.00026933674
57	0x3aa44a12	0.0012534282
58	0x3a55e00d	0.00081586913
59	0xba39259b	-0.00070627936
60	0xb8cd6d36	-9.795504e-05
61	0xbabe2667	-0.0014507294
62	0x39c496e5	0.00037496458
63	0xba2f31fc	-0.00066831685
64	0x3a1a5a1e	0.00058880623
65	0x399d8182	0.00030041864
66	0x39182ff6	0.00014513716
67	0x3784eada	1.5844988e-05
68	0x3a88aa48	0.0010426724
69	0x386cec32	5.648676e-05
70	0x3a5b1b28	0.00083582336
71	0x3a2fc15c	0.0006704533
72	0x390d43c8	0.00013472058
73	0xb8c011af	-9.158567e-05
74	0xba989f2e	-0.0011644119
75	0x3780d7b7	1.535924e-05
76	0xbab0579e	-0.0013453846
77	0xb92fe474	-0.00016774406
78	0xba55b334	-0.00081520085
79	0x3aab2b39	0.0013059146
80	0xba88383e	-0.0010392738
81	0xba7027a2	-0.0009161179
82	0x3a21376c	0.0006149921
83	0xba9155d4	-0.0011088201
84	0xb9c8c7ee	-0.00038295932
85	0xba4c2fd6	-0.00077891105
86	0x38fca681	0.0001204731
87	0x3a75f824	0.0009382984
88	0x3ac6c66d	0.0015165337
89	0xb8b7796a	-8.748735e-05
90	0xba82d46c	-0.000998152
91	0x38b395f2	8.5633146e-05
92	0x39c62efb	0.00037800506
93	0x39c71d3a	0.00037978013
94	0x3a8f7b8e	0.0010946856
95	0xba0c5989	-0.0005353918
96	0x3ab5bf83	0.0013866279
97	0xbaa4a78d	-0.0012562141
98	0x3a493659	0.000767564
99	0xba5142c9	-0.0007982669
100	0xba92016f	-0.0011139343
101	0x3aa7dd5c	0.0012807059

temporal_gat.bias f4 [100, 100]
0	0x00000000	0.0
1	0x00000000	0.0
2	0x00000000	0.0
3	0x00000000	0.0
4	0x00000000	0.0
5	0x00000000	0.0
6	0x00000000	0.0
7	0x00000000	0.0
8	0x00000000	0.0
9	0x00000000	0.0
10	0x00000000	0.0
11	0x00000000	0.0
12	0x00000000	0.0
13	0x00000000	0.0
14	0x00000000	0.0
15	0x00000000	0.0
16	0x00000000	0.0
17	0x00000000	0.0
18	0x00000000	0.0
19	0x00000000	0.0
20	0x00000000	0.0
21	0x00000000	0.0
22	0x00000000	0.0
23	0x00000000	0.0
24	0x00000000	0.0
25	0x00000000	0.0
26	0x00000000	0.0
27	0x00000000	0.0
28	0x00000000	0.0
29	0x00000000	0.0
30	0x00000000	0.0
31	0x00000000	0.0
32	0x00000000	0.0
33	0x00000000	0.0
34	0x00000000	0.0
35	0x00000000	0.0
36	0x00000000	0.0
37	0x00000000	0.0
38	0x00000000	0.0
39	0x00000000	0.0
40	0x00000000	0.0
41	0x00000000	0.0
42	0x00000000	0.0
43	0x00000000	0.0
44	0x00000000	0.0
45	0x00000000	0.0
46	0x00000000	0.0
47	0x00000000	0.0
48	0x00000000	0.0
49	0x00000000	0.0
50	0x00000000	0.0
51	0x00000000	0.0
52	0x00000000	0.0
53	0x00000000	0.0
54	0x00000000	0.0
55	0x00000000	0.0
56	0x00000000	0.0
57	0x00000000	0.0
58	0x00000000	0.0
59	0x00000000	0.0
60	0x00000000	0.0
61	0x00000000	0.0
62	0x00000000	0.0
63	0x00000000	0.0
64	0x00000000	0.0
65	0x00000000	0.0
66	0x00000000	0.0
67	0x00000000	0.0
68	0x00000000	0.0
69	0x00000000	0.0
70	0x00000000	0.0
71	0x00000000	0.0
72	0x00000000	0.0
73	0x00000000	0.0
74	0x00000000	0.0
75	0x00000000	0.0
76	0x00000000	0.0
77	0x00000000	0.0
78	0x00000000	0.0
79	0x00000000	0.0
80	0x00000000	0.0
81	0x00000000	0.0
82	0x00000000	0.0
83	0x00000000	0.0
84	0x00000000	0.0
85	0x00000000	0.0
86	0x00000000	0.0
87	0x00000000	0.0
88	0x00000000	0.0
89	0x00000000	0.0
90	0x00000000	0.0
91	0x00000000	0.0
92	0x00000000	0.0
93	0x00000000	0.0
94	0x00000000	0.0
95	0x00000000	0.0
96	0x00000000	0.0
97	0x00000000	0.0
98	0x00000000	0.0
99	0x00000000	0.0
100	0x00000000	0.0
101	0x00000000	0.0
102	0x00000000	0.0
103	0x00000000	0.0
104	0x00000000	0.0
105	0x00000000	0.0
106	0x00000000	0.0
107	0x00000000	0.0
108	0x00000000	0.0
109	0x00000000	0.0
110	0x00000000	0.0
111	0x00000000	0.0
112	0x00000000	0.0
113	0x00000000	0.0
114	0x00000000	0.0
115	0x00000000	0.0
116	0x00000000	0.0
117	0x00000000	0.0
118	0x00000000	0.0
119	0x00000000	0.0
120	0x00000000	0.0
121	0x00000000	0.0
122	0x00000000	0.0
123	0x00000000	0.0
124	0x00000000	0.0
125	0x00000000	0.0
126	0x00000000	0.0
127	0x00000000	0.0
128	0x00000000	0.0
129	0x00000000	0.0
130	0x00000000	0.0
131	0x00000000	0.0
132	0x00000000	0.0
133	0x00000000	0.0
134	0x00000000	0.0
135	0x00000000	0.0
136	0x00000000	0.0
137	0x00000000	0.0
138	0x00000000	0.0
139	0x00000000	0.0
140	0x00000000	0.0
141	0x00000000	0.0
142	0x00000000	0.0
143	0x00000000	0.0
144	0x00000000	0.0
145	0x00000000	0.0
146	0x00000000	0.0
147	0x00000000	0.0
148	0x00000000	0.0
149	0x00000000	0.0
150	0x00000000	0.0
151	0x00000000	0.0
152	0x00000000	0.0
153	0x00000000	0.0
154	0x00000000	0.0
155	0x00000000	0.0
156	0x00000000	0.0
157	0x00000000	0.0
158	0x00000000	0.0
159	0x00000000	0.0
160	0x00000000	0.0
161	0x00000000	0.0
162	0x00000000	0.0
163	0x00000000	0.0
164	0x00000000	0.0
165	0x00000000	0.0
166	0x00000000	0.0
167	0x00000000	0.0
168	0x00000000	0.0
169	0x00000000	0.0
170	0x00000000	0.0
171	0x00000000	0.0
172	0x00000000	0.0
173	0x00000000	0.0
174	0x00000000	0.0
175	0x00000000	0.0
176	0x00000000	0.0
177	0x00000000	0.0
178	0x00000000	0.0
179	0x00000000	0.0
180	0x00000000	0.0
181	0x00000000	0.0
182	0x00000000	0.0
183	0x00000000	0.0
184	0x00000000	0.0
185	0x00000000	0.0
186	0x00000000	0.0
187	0x00000000	0.0
188	0x00000000	0.0
189	0x00000000	0.0
190	0x00000000	0.0
191	0x00000000	0.0
192	0x00000000	0.0
193	0x00000000	0.0
194	0x00000000	0.0
195	0x00000000	0.0
196	0x00000000	0.0
197	0x00000000	0.0
198	0x00000000	0.0
199	0x00000000	0.0
200	0x00000000	0.0
201	0x00000000	0.0
202	0x00000000	0.0
203	0x00000000	0.0
204	0x00000000	0.0
205	0x00000000	0.0
206	0x00000000	0.0
207	0x00000000	0.0
208	0x00000000	0.0
209	0x00000000	0.0
210	0x00000000	0.0
211	0x00000000	0.0
212	0x00000000	0.0
213	0x00000000	0.0
214	0x00000000	0.0
215	0x00000000	0.0
216	0x00000000	0.0
217	0x00000000	0.0
218	0x00000000	0.0
219	0x00000000	0.0
220	0x00000000	0.0
221	0x00000000	0.0
222	0x00000000	0.0
223	0x00000000	0.0
224	0x00000000	0.0
225	0x00000000	0.0
226	0x00000000	0.0
227	0x00000000	0.0
228	0x00000000	0.0
229	0x00000000	0.0
230	0x00000000	0.0
231	0x00000000	0.0
232	0x00000000	0.0
233	0x00000000	0.0
234	0x00000000	0.0
235	0x00000000	0.0
236	0x00000000	0.0
237	0x00000000	0.0
238	0x00000000	0.0
239	0x00000000	0.0
240	0x00000000	0.0
241	0x00000000	0.0
242	0x00000000	0.0
243	0x00000000	0.0
244	0x00000000	0.0
245	0x00000000	0.0
246	0x00000000	0.0
247	0x00000000	0.0
248	0x00000000	0.0
249	0x00000000	0.0
250	0x00000000	0.0
251	0x00000000	0.0
252	0x00000000	0.0
253	0x00000000	0.0
254	0x00000000	0.0
255	0x00000000	0.0

temporal_gat.lin.weight f4 [51, 51]
0	0x39dd1cd3	0.0004217388
1	0xb9302582	-0.0001679864
2	0xb9fc1866	-0.00048083364
3	0xb9e73349	-0.00044097964
4	0xb99ec265	-0.00030280944
5	0xb8821fbf	-6.204796e-05
6	0xb827a4fd	-3.996956e-05
7	0xb9ffbb1f	-0.00048776806
8	0x3a14b3de	0.0005672554
9	0x37d05332	2.4834273e-05
10	0x3a180d4a	0.000580032
11	0xb959fe65	-0.00020789502
12	0x39e3e0e7	0.0004346438
13	0x3935c453	0.00017334642
14	0xba0d4d2e	-0.0005390224
15	0x39d7fe3e	0.0004119742
16	0x39c76738	0.00038033142
17	0xb9e6f315	-0.0004405013
18	0x39ffc9cd	0.00048787743
19	0xb8fa560e	-0.00011936958
20	0xb978d67b	-0.00023731023
21	0xb93868fd	-0.00017586719
22	0xb9d7f17d	-0.00041187918
23	0x3a03bd69	0.0005025478
24	0xb94d693b	-0.00019589525
25	0xb9b5ecee	-0.00034699537
26	0x3a168cdd	0.0005743036
27	0xba1ac8f8	-0.00059045805
28	0xb9e805ee	-0.00044254906
29	0x3941085a	0.00018409026
30	0x3a0d7ed0	0.00053976197
31	0xb998aca3	-0.00029120324
32	0xb99abe8d	-0.0002951514
33	0xb9a3ed22	-0.0003126646
34	0x39c85c4d	0.00038215742
35	0xb7daad56	-2.6068341e-05
36	0xb9ed5763	-0.0004526927
37	0xb987a3d5	-0.0002587127
38	0xb9fb1257	-0.00047888115
39	0x396f0d67	0.00022797809
40	0xb99985ac	-0.00029282027
41	0x382e21cd	4.1516312e-05
42	0x39d2bf90	0.00040197046
43	0x39daa6db	0.00041704517
44	0xba18f402	-0.00058347
45	0x39952219	0.000284449
46	0x3a0a6805	0.00052797823
47	0x39f53b68	0.00046774303
48	0x395cb548	0.00021048367
49	0xb7ebbb0b	-2.8101282e-05
50	0xb9b42dd4	-0.0003436642
51	0xb99ca3c2	-0.00029876648
52	0xb9aeb525	-0.0003332283
53	0xb92fa4b8	-0.00016750663
54	0x39aa9814	0.00032538234
55	0x3a173dc5	0.0005769397
56	0x39b2b5fb	0.00034086392
57	0xb922e470	-0.00015534624
58	0x386fcdd0	5.717372e-05
59	0xb96a412c	-0.00022340257
60	0xb94884cd	-0.00019122958
61	0xb8fd500d	-0.00012078891
62	0xb7d6d004	-2.5607653e-05
63	0x382dbd0d	4.142248e-05
64	0x398d90cb	0.00027001495
65	0x3953c71d	0.00020196704
66	0x39d40fa8	0.00040447456
67	0x38a18631	7.702073e-05
68	0xb9f8e44b	-0.00047472338
69	0x381380fc	3.5167657e-05
70	0x397b4138	0.00023961521
71	0xba0a89d6	-0.00052848214
72	0x37dae069	2.6092124e-05
73	0x39bfe8b1	0.00036603727
74	0xb9cde41b	-0.000392706
75	0x39902e48	0.00027500303
76	0xb9bd52bf	-0.0003611054
77	0x396aab3b	0.00022379767
78	0x395a5230	0.00020820717
79	0x39791265	0.00023753343
80	0xb9d592f0	-0.00040736003
81	0x3988dc82	0.00026104233
82	0xb9de4a9f	-0.00042398737
83	0xb99b1558	-0.00029579806
84	0x3979f530	0.0002383783
85	0xb9d78e09	-0.0004111382
86	0x39af06fb	0.00033383802
87	0x399ef144	0.00030315865
88	0x3a160026	0.0005722068
89	0xb9af7d71	-0.00033472062
90	0x39236c4d	0.00015585237
91	0x39f345e8	0.00046400656
92	0x3962e25a	0.00021637362
93	0xb916d6ef	-0.00014385184
94	0x3a07be98	0.0005178242
95	0x39c2d7dd	0.00037163394
96	0x3926093b	0.00015834432
97	0xb942f2e1	-0.00018591761
98	0xb9bded6d	-0.00036225785
99	0x3a0aba55	0.0005292048
100	0x36d43985	6.3247885e-06
101	0xb8bcf871	-9.0108144e-05
102	0xb60f5602	-2.1358724e-06
103	0xb9a231ae	-0.00030936062
104	0x3990e523	0.0002763654
105	0x390f07d2	0.00013640456
106	0x38f16d58	0.000115121424
107	0xb8bce87e	-9.0078436e-05
108	0x394f2445	0.0001975457
109	0x3a0492f8	0.00050573004
110	0x39a42031	0.00031304502
111	0x3a0f9756	0.0005477568
112	0x393c75c2	0.00017972945
113	0x399edd6c	0.0003030108
114	0xb94626e0	-0.00018897234
115	0xb9d7d4e7	-0.0004116662
116	0x399f4475	0.00030377848
117	0x38a356d1	7.7886165e-05
118	0xb7a899e7	-2.0098827e-05
119	0x38b27d3b	8.5110274e-05
120	0x397a8953	0.00023893015
121	0xb7c03922	-2.2914788e-05
122	0x398a023a	0.0002632307
123	0x3a16fe82	0.00057599705
124	0xb8b11bfa	-8.445229e-05
125	0xb92af135	-0.0001630232
126	0xb98f9ffd	-0.00027394286
127	0x39c2ca8c	0.00037153473
128	0xb928c5f5	-0.00016095473
129	0x390be656	0.0001334188
130	0xb9d49cd1	-0.00040552628
131	0x393d8c73	0.00018076766
132	0xb9ea777c	-0.0004472098
133	0x38c0e9e5	9.19884e-05
134	0xb9b473fd	-0.00034418693
135	0xba0ecb5b	-0.00054471724
136	0x38013ec0	3.0814437e-05
137	0x394454e3	0.0001872364
138	0xb9d691b9	-0.00040925833
139	0xb9a6c905	-0.00031811759
140	0x39cfea95	0.00039656894
141	0xb8b652d9	-8.693868e-05
142	0x39c585dd	0.00037674504
143	0xb9a1bd36	-0.00030849286
144	0xb92621c7	-0.00015843577
145	0x399f9334	0.00030436518
146	0xba095ed9	-0.00052402687
147	0x393213b6	0.00016982746
148	0xb9c06d3e	-0.00036702486
149	0xb9970ba2	-0.00028809631
150	0x38ee2f7d	0.0001135757
151	0x39b15764	0.00033825182
152	0xb9a0debd	-0.0003068353
153	0x38638fcb	5.4254935e-05
154	0xb8b687a1	-8.703699e-05
155	0xb9daffe1	-0.00041770845
156	0xb8c12faf	-9.211839e-05
157	0x387c8cc8	6.0212595e-05
158	0xb99155c2	-0.0002772045
159	0xb99a6751	-0.00029450146
160	0x39fbedac	0.0004805153
161	0xb9bbf4cf	-0.00035849816
162	0xb87c4e0a	-6.015416e-05
163	0x39ea4a9a	0.0004468754
164	0xb9732998	-0.00023189781
165	0xb9f01a09	-0.00045795765
166	0xb99caffa	-0.0002988575
167	0xb9f2408d	-0.0004620593
168	0x39da86db	0.00041680675
169	0xb98d966e	-0.00027005695
170	0x394d2aa4	0.00019566208
171	0x39a41976	0.00031299487
172	0xb91553b3	-0.00014240928
173	0x39855ec9	0.00025438357
174	0x3a03e966	0.00050320325
175	0xb89b4688	-7.4041134e-05
176	0x3948575a	0.00019106027
177	0xb9994ba6	-0.00029238797
178	0x39e9518c	0.0004450198
179	0xba133f43	-0.0005617032
180	0xb90f704e	-0.0001367938
181	0x384bb7c4	4.8570117e-05
182	0xb9efec82	-0.00045761844
183	0xb9e8cc80	-0.00044402853
184	0x399c9614	0.00029866456
185	0xba047b30	-0.0005053757
186	0xb711386b	-8.655809e-06
187	0x3a0d0c96	0.00053805986
188	0xba009f5a	-0.0004906558
189	0x3a1b026a	0.00059131405
190	0x39f60e47	0.00046931414
191	0xb9205027	-0.00015288648
192	0x39480b9a	0.00019077808
193	0xb923446d	-0.00015570382
194	0xb9a0b899	-0.00030655114
195	0x39b9d92a	0.0003544775
196	0x38b4c19b	8.619131e-05
197	0x395b81ea	0.00020933864
198	0x3a0d87e5	0.0005398973
199	0xb897b1dd	-7.233371e-05
200	0xb8870a52	-6.439224e-05
201	0xba05f162	-0.0005109516
202	0xba09e66c	-0.0005260471
203	0xb9ac6e48	-0.00032888562
204	0xb9bf5ced	-0.00036499594
205	0x39eec18b	0.00045539098
206	0xb97ca6c7	-0.00024094722
207	0xb8ce0d5c	-9.825334e-05
208	0x39e29ecc	0.00043224392
209	0xb98fd8a1	-0.00027436487
210	0x380250dc	3.106972e-05
211	0xba084512	-0.00051982806
212	0x39e52a11	0.00043709626
213	0xba19c210	-0.00058654044
214	0x39babc2b	0.0003561688
215	0xb84ac943	-4.8347993e-05
216	0xb9841d97	-0.00025199048
217	0xb902e436	-0.00012482781
218	0xb9ef3dae	-0.00045631587
219	0xb9469098	-0.00018936617
220	0x39da031e	0.00041582523
221	0x39fe7e8c	0.0004854094
222	0x39b38fdd	0.00034248727
223	0xb95fafa4	-0.00021332368
224	0xb917c9c0	-0.0001447564
225	0x396e94c9	0.00022752876
226	0xba16392e	-0.00057305663
227	0xba0bcb44	-0.0005332718
228	0xba13ce09	-0.00056383066
229	0x3a166ab1	0.0005737944
230	0x39872c6d	0.00025782306
231	0xb996ec10	-0.0002878611
232	0xb92654fd	-0.00015862654
233	0x38d9c365	0.000103837614
234	0x393d36a7	0.00018044804
235	0x38b8cd5f	8.812057e-05
236	0x39881d0d	0.00025961586
237	0x38bccb16	9.002366e-05
238	0xb92cf958	-0.00016496086
239	0x39302765	0.00016799344
240	0x39bfb437	0.0003656463
241	0xb89f6984	-7.6013646e-05
242	0x3918541e	0.00014527186
243	0xba1bda01	-0.0005945266
244	0xba0ceea2	-0.0005376135
245	0xba12563f	-0.00055823097
246	0x39463195	0.00018901222
247	0xb9ba1517	-0.00035492398
248	0x398a4eba	0.00026380067
249	0x380a407d	3.2961823e-05
250	0x39579761	0.00020560391
251	0xba01ba83	-0.0004948752
252	0x3a089912	0.00052107975
253	0xba08b427	-0.0005214833
254	0xb93eb996	-0.00018188948
255	0xb86fd19b	-5.717725e-05

temporal_gat.lin.bias f4 [51]
0	0xb83b964f	-4.472426e-05
1	0x39dd1312	0.00042166613
2	0x3969d1a0	0.00022298703
3	0x38d315c8	0.00010065321
4	0x3980bce5	0.000245548
5	0x39c92429	0.0003836465
6	0x3940c64d	0.0001838442
7	0x3a05a03d	0.0005097425
8	0x3a159d3a	0.00057073275
9	0xb9f59af0	-0.0004684548
10	0xb9d602ac	-0.0004081925
11	0xb9ebb2f0	-0.00044956012
12	0xb9f31cd9	-0.00046370065
13	0x39a24828	0.00030952808
14	0x39ccbfe7	0.0003905289
15	0x381a5070	3.6791374e-05
16	0xb8e4a301	-0.00010902249
17	0xba0b9f6c	-0.0005326185
18	0xba169c9b	-0.0005745382
19	0x3919546c	0.00014622667
20	0x3913f379	0.00014109713
21	0x3959a341	0.0002075555
22	0xb8137186	-3.5153258e-05
23	0x391b8464	0.00014831271
24	0x391c02a6	0.00014878306
25	0xb9844019	-0.00025224758
26	0x3a01a76d	0.0004945908
27	0xb7f6a178	-2.9400675e-05
28	0xb6f194f6	-7.199701e-06
29	0xb9c777a5	-0.0003804538
30	0x39e4b0b4	0.00043619203
31	0x3a08e92d	0.0005222734
32	0x3909fd97	0.00013159808
33	0xb9c58ebc	-0.00037681113
34	0xb9b65a94	-0.0003478123
35	0xba18a0a8	-0.00058222795
36	0xb83cef47	-4.5045537e-05
37	0x3995df40	0.0002858583
38	0xb9aac224	-0.00032569573
39	0xb99c90c5	-0.000298625
40	0xb9b3bc30	-0.0003428175
41	0x38daded8	0.00010436558
42	0x39966c61	0.00028690978
43	0xb9e71aae	-0.0004407963
44	0xb99e504f	-0.00030195943
45	0x3978fb02	0.00023744631
46	0x39e31416	0.0004331178
47	0x39c555dd	0.0003763874
48	0xb9108497	-0.00013782304
49	0xb86b244e	-5.6062177e-05
50	0xb9b6a11d	-0.00034833784
